outputs/ppo_synthetic/epoch-0/score_head.pt (torch, 3453 bytes, 1 tensors)

weight f4 [1, 384]
0	0x3c377f74	0.011199821
1	0x3bad25a0	0.0052840263
2	0xbb0cc2da	-0.0021478445
3	0x3d1c743f	0.0381968
4	0xbcd23b4e	-0.025663044
5	0xbccaec92	-0.024771009
6	0x3d2ed17d	0.042680252
7	0xbc9c6cee	-0.01909491
8	0x3cbf5f2f	0.023360817
9	0xbcb57c18	-0.0221539
10	0x3cb9e6cf	0.022693066
11	0x3b818a19	0.00395323
12	0xbd016ebb	-0.03159974
13	0xbbbc6ef5	-0.005750532
14	0xbd21fb3f	-0.039546248
15	0xbd2bcbe2	-0.041942485
16	0x3c67b9c3	0.01414341
17	0xbc912b6e	-0.017720904
18	0x3d00a01b	0.03140269
19	0xbc6f8ed1	-0.014621452
20	0xbcb27c84	-0.02178789
21	0x3ca66755	0.020312944
22	0xbcb924f5	-0.02260063
23	0x3d10d847	0.03536251
24	0x3be50638	0.0069892667
25	0xbc03a0a7	-0.008033908
26	0x3c92a5ca	0.01790132
27	0x3c9c6d7f	0.01909518
28	0xbcc8505c	-0.02445238
29	0xbcbd5d51	-0.023115786
30	0x3c68df1c	0.01421335
31	0xbc480d05	-0.012210135
32	0x3cb862f3	0.02250812
33	0x3cacf9f2	0.021115277
34	0xbcccd6d1	-0.025004776
35	0xbc3ebeaa	-0.011642138
36	0x3d0d9135	0.03456231
37	0xbc90142b	-0.017587742
38	0x3c9d6323	0.019212311
39	0xbd2ef5f5	-0.04271503
40	0x3aaad327	0.0013032899
41	0xbb301225	-0.0026866284
42	0x3b449555	0.0029996235
43	0x3d353f85	0.04425003
44	0x3d183385	0.037158508
45	0x3cd70983	0.026249653
46	0x3cc22027	0.023696972
47	0xbc9f7732	-0.019466016
48	0xbd3d110b	-0.04615883
49	0x3ce0916e	0.027413096
50	0xbd25db33	-0.040492248
51	0x3d02bd66	0.031918906
52	0x3c540b5c	0.012942161
53	0x3d295193	0.04133756
54	0x3d1cc6db	0.03827558
55	0x3d14cf45	0.03633048
56	0xbc2eab74	-0.010660995
57	0xbd16254e	-0.03665667
58	0xbd362e57	-0.044477787
59	0x3d43b08e	0.047775798
60	0xbc982b5a	-0.01857536
61	0x3d145c6f	0.036220964
62	0xbcf3c051	-0.02975479
63	0xbd08ef8c	-0.033431575
64	0x3cf0adc4	0.029379733
65	0xbca06778	-0.019580588
66	0x3b63b25d	0.0034743764
67	0xbcbad71e	-0.022807654
68	0xbc068b9d	-0.008211997
69	0x3c0f3bc5	0.0087422775
70	0x3d2b610c	0.041840598
71	0x3cdfdaa2	0.027325932
72	0xbd0cb7cf	-0.03435498
73	0xbd0e75c6	-0.034780286
74	0xbd424d1f	-0.04743683
75	0xbc02a6ae	-0.00797431
76	0x3cf59c97	0.029981894
77	0xbbdb645c	-0.0066953134
78	0x3b296afa	0.0025851117
79	0xba9fc117	-0.0012188283
80	0xbc9c0dc7	-0.019049538
81	0xbd2b363b	-0.041799765
82	0x3bbc265c	0.0057418775
83	0x3cde7405	0.027154932
84	0xbc0f8632	-0.008760022
85	0x3b85c67f	0.0040825005
86	0xbd29bff7	-0.041442838
87	0x3b446593	0.002996777
88	0xbd1775b0	-0.03697747
89	0x3cb42cd4	0.021994032
90	0x3bdb5ca7	0.0066943946
91	0x3d2fb147	0.042893674
92	0x3c909b65	0.017652223
93	0xbb56237e	-0.0032674964
94	0x3c91ed14	0.017813243
95	0xbc06c3cf	-0.008225395
96	0xbd16114b	-0.036637586
97	0x3d2d50b0	0.042313278
98	0xbb3999e8	-0.0028320495
99	0xbd2595de	-0.040426128
100	0x3a9d3d6c	0.0011996455
101	0xbcf32df6	-0.029685002
102	0x3d068b5f	0.03284776
103	0xbc32a7fc	-0.010904308
104	0x3d43c0f7	0.047791447
105	0xbcf217f0	-0.02955243
106	0x3d2ae0e6	0.041718386
107	0xbd292cfc	-0.041302666
108	0x3c9e96f9	0.019359099
109	0x3d22a9ad	0.039712597
110	0x3d22c6d3	0.039740395
111	0x3bc59bbd	0.0060305283
112	0xbd3643e0	-0.044498324
113	0x3d121cfd	0.035672177
114	0xbc87624b	-0.016526362
115	0xbd267055	-0.040634472
116	0x3d1f0eca	0.038832463
117	0x3d0b934e	0.034076028
118	0xbc8d40d9	-0.017242836
119	0xbd2cda0f	-0.042200144
120	0x3c3201ca	0.010864684
121	0xbd10e6c7	-0.035376336
122	0xbd3a5a3b	-0.045496207
123	0xbc1ae9a3	-0.009455117
124	0x3ca14873	0.019687867
125	0x3c391588	0.011296637
126	0x3d3c43f1	0.04596323
127	0xbcbdff1c	-0.023192935
128	0xba6d030e	-0.00090412877
129	0x3c8dc6cb	0.017306706
130	0xbc87cb0f	-0.016576318
131	0xbd2845cb	-0.041082185
132	0x3c602ec1	0.013683022
133	0x3c029109	0.007969149
134	0xbd026dcd	-0.031842995
135	0x3ca35ede	0.019942697
136	0xbd16e58b	-0.036840003
137	0xbd34d349	-0.04414681
138	0x3d1ed5dd	0.038778175
139	0xbd15e9f1	-0.036600057
140	0x3d0e0866	0.034675978
141	0xbcb3e078	-0.021957621
142	0xbd4e4bac	-0.050365135
143	0x3cedaa35	0.029011825
144	0xba642ae1	-0.0008703899
145	0xbc331c78	-0.01093208
146	0x3c6fbde1	0.014632673
147	0xbc8e4495	-0.017366687
148	0x3cd2ac24	0.025716849
149	0xbc43e1dc	-0.011955705
150	0xbb0f95e9	-0.0021909422
151	0xbbfd5d3e	-0.0077320626
152	0x3c1a8122	0.009430202
153	0xbcae6b5b	-0.021291425
154	0x3b52a1a8	0.0032139812
155	0xbd189720	-0.0372535
156	0x3bfb895b	0.007676286
157	0x3d2e4ceb	0.042553823
158	0xbd3e8719	-0.046515558
159	0xbd2393ac	-0.039935753
160	0xbb658a97	-0.0035025233
161	0xbc5f37f2	-0.013624178
162	0x3d2c5a75	0.042078454
163	0x3c06c717	0.008226178
164	0x3d06d875	0.032921273
165	0x3d31ea16	0.043436132
166	0x3c2bf3d2	0.010495143
167	0xbd1c5879	-0.03817031
168	0xbb8f7b6f	-0.004378728
169	0x3cf10ef8	0.029426083
170	0x3ca72126	0.020401549
171	0xbd2c3a3b	-0.04204772
172	0x3c69148e	0.014226092
173	0x3d0da851	0.034584347
174	0xbbbb70ee	-0.0057202494
175	0x3ce7c68a	0.028292913
176	0xbc82dfe1	-0.015975894
177	0x3c1a2964	0.009409282
178	0x3d01f824	0.031730786
179	0xbcbfd498	-0.023416802
180	0x3c121bc7	0.008917755
181	0xbcd28952	-0.025700245
182	0x3ccbd6f7	0.024882777
183	0x3cfc6e22	0.030814234
184	0xbd4f7b3b	-0.05065463
185	0xbd3bf2e2	-0.045885928
186	0x3d19ad06	0.037518524
187	0xbc81db60	-0.015851676
188	0x3ca26fa1	0.01982862
189	0x3d4abbf3	0.04949565
190	0x3d03672d	0.032080818
191	0x3a1b462e	0.00059232384
192	0x3c95cdec	0.018286668
193	0x3cb35044	0.02188886
194	0x3c645108	0.013935335
195	0xbcfc003e	-0.030761834
196	0x3c715b30	0.014731213
197	0x3b75def8	0.0037516933
198	0xbab92bc4	-0.0014127423
199	0x3cfe4b04	0.03104163
200	0xbbd65778	-0.006541189
201	0xb91efc5a	-0.00015162062
202	0x3cd9775d	0.026546175
203	0xbd2bf270	-0.041979253
204	0x3bed5c6d	0.007243684
205	0x3c61402c	0.01374821
206	0x3bacdf07	0.0052756104
207	0x3d262546	0.04056289
208	0xbaf50c14	-0.0018695616
209	0xbd2e55a7	-0.042562153
210	0xbcaa7126	-0.020805907
211	0xbc817fea	-0.015808064
212	0xbd052090	-0.032501757
213	0x3d5290a9	0.05140749
214	0x3d029e7c	0.031889424
215	0xbc41083e	-0.01178175
216	0xbc9dd955	-0.019268671
217	0x3cf507f3	0.029911017
218	0xbd2ad954	-0.041711167
219	0x3c2179a8	0.009855665
220	0x3d337f59	0.04382262
221	0x3d48cb0a	0.04902176
222	0xbd5250d9	-0.051346634
223	0x3c1970b4	0.009365249
224	0xbd239be6	-0.0399436
225	0x3d102ba3	0.035197865
226	0x396ce2ae	0.00022591159
227	0x3c42b6e8	0.011884429
228	0x3d2beb54	0.041972473
229	0xbd507769	-0.05089513
230	0xbc721c94	-0.014777321
231	0x3cfb9d80	0.03071475
232	0xbbb651e6	-0.0055639623
233	0x3d32780a	0.04357151
234	0x3c8792e1	0.01654953
235	0x3be61a15	0.007022152
236	0x3cdfd72b	0.02732428
237	0xbcd50701	-0.026004316
238	0xbc97276e	-0.018451419
239	0x3c23b1f6	0.00999116
240	0x3d3ed447	0.046589162
241	0x3ca97d69	0.020689683
242	0x3d091e50	0.033476174
243	0x3cfcf48b	0.030878326
244	0x3b9187b7	0.0044412273
245	0xbbfe14a9	-0.0077539277
246	0xbcb6a321	-0.022294583
247	0xbd196afd	-0.037455548
248	0x3cb0083a	0.021488298
249	0x3b820695	0.00396807
250	0xbc544445	-0.01295573
251	0x3c9def47	0.019279135
252	0x3c6fb189	0.01462973
253	0x3cd4639b	0.025926402
254	0xbd3f0b91	-0.04664189
255	0xbc8aff1e	-0.016967352
