outputs/ppo_synthetic_overfit/epoch-6/score_head.pt (torch, 3453 bytes, 1 tensors)

weight f4 [1, 384]
0	0x3c20caa5	0.009813939
1	0x3b8cbbd3	0.0042948513
2	0xbab7265b	-0.0013973223
3	0x3d180ec1	0.037123445
4	0xbcc8d42a	-0.02451523
5	0xbcca3faf	-0.02468857
6	0x3d28fbf8	0.04125592
7	0xbc901531	-0.01758823
8	0x3cb4fc15	0.022092858
9	0xbcaa952b	-0.020823082
10	0x3cc460b9	0.023971902
11	0x3b4f52ec	0.0031635119
12	0xbd07b4ce	-0.033131413
13	0xbb857aac	-0.0040734615
14	0xbd1aa2ca	-0.037752904
15	0xbd2562a0	-0.04037726
16	0x3c500694	0.012696881
17	0xbc8a4acb	-0.016881367
18	0x3cf67795	0.030086318
19	0xbc66d0b9	-0.014087849
20	0xbca9bb9e	-0.020719346
21	0x3c9c95b6	0.019114356
22	0xbcb0312c	-0.021507822
23	0x3d0b52f9	0.034014676
24	0x3bc231fc	0.0059263688
25	0xbc1f56d5	-0.009725292
26	0x3c815b84	0.015790708
27	0x3c8fdd9e	0.01756173
28	0xbcbd82ab	-0.023133596
29	0xbccffea3	-0.025389975
30	0x3c4ddcee	0.012564881
31	0xbc38a1ef	-0.011269077
32	0x3caa7f60	0.02081269
33	0x3c9bb810	0.019008666
34	0xbcca1caa	-0.024671871
35	0xbc1f18be	-0.009710489
36	0x3d093275	0.033495385
37	0xbc96c4b9	-0.018404352
38	0x3c9155f2	0.017741177
39	0xbd292f53	-0.041304898
40	0x3b145c49	0.0022638014
41	0xbb3855be	-0.0028127278
42	0x3aaf9b8c	0.0013397797
43	0x3d2e84e9	0.04260722
44	0x3d11515e	0.03547799
45	0x3cc81319	0.024423169
46	0x3cb55e46	0.02213968
47	0xbc94c2a7	-0.018159224
48	0xbd36c169	-0.044618044
49	0x3cd63d97	0.026152415
50	0xbd235782	-0.039878376
51	0x3cf9e285	0.03050352
52	0x3c39ccf4	0.011340369
53	0x3d23455a	0.03986106
54	0x3d172d55	0.036908466
55	0x3d0f69f6	0.03501316
56	0xbc2a0d68	-0.010379173
57	0xbd11836a	-0.035525717
58	0xbd2eeb22	-0.04270471
59	0x3d3e08e6	0.046395205
60	0xbc8d4aba	-0.017247546
61	0x3d161dd0	0.036649525
62	0xbcf0a59c	-0.029375844
63	0xbd03443c	-0.032047495
64	0x3cf289c3	0.029606706
65	0xbc97ac71	-0.018514844
66	0x3b133150	0.0022459812
67	0xbcb8358b	-0.022486469
68	0xbbdee0be	-0.0068016937
69	0x3c08b9de	0.008345095
70	0x3d248973	0.040170144
71	0x3cd58fd2	0.026069555
72	0xbd0873d2	-0.03331358
73	0xbd08fafa	-0.033442475
74	0xbd3e5a89	-0.04647306
75	0xbc1f97fc	-0.009740826
76	0x3cea8317	0.028626962
77	0xbbb71eab	-0.0055883727
78	0x3b82f63f	0.00399664
79	0xbadc566e	-0.0016810426
80	0xbc8e900e	-0.017402675
81	0xbd268a7d	-0.040659416
82	0x3bb25594	0.0054423306
83	0x3ce41d4e	0.027846005
84	0xbbe73383	-0.007055701
85	0x3b93469f	0.0044945027
86	0xbd2578d8	-0.04039845
87	0x3b6ed2e3	0.0036441616
88	0xbd101de7	-0.035184767
89	0x3ca08687	0.019595398
90	0x3bc93a50	0.0061409846
91	0x3d295dd6	0.041349255
92	0x3c90c1a3	0.017670458
93	0xba995e2f	-0.0011701043
94	0x3c89030a	0.016725082
95	0xbbf51726	-0.007479566
96	0xbd0c660f	-0.03427702
97	0x3d2932a1	0.04130805
98	0xbb9e79ad	-0.004836282
99	0xbd1f45e4	-0.038885012
100	0xb777454a	-1.473848e-05
101	0xbcf03dbc	-0.029326312
102	0x3d06508b	0.032791656
103	0xbc4077c8	-0.011747308
104	0x3d3d4e6e	0.046217375
105	0xbcea052a	-0.028566916
106	0x3d24c697	0.040228453
107	0xbd2606d6	-0.040533863
108	0x3cac1269	0.021004872
109	0x3d17da5f	0.03707349
110	0x3d1b57ff	0.037925716
111	0x3b8b7ad2	0.0042565847
112	0xbd2fcedd	-0.04292189
113	0x3d0835fc	0.03325461
114	0xbc76859a	-0.0150465015
115	0xbd1fbe61	-0.03899992
116	0x3d21c8d3	0.03949816
117	0x3d066e89	0.03282026
118	0xbc7e4307	-0.01551891
119	0xbd273bd9	-0.04082856
120	0x3c418ea9	0.011813798
121	0xbd0e0190	-0.03466946
122	0xbd357844	-0.044304147
123	0xbbfc3366	-0.007696557
124	0x3c9b2ce8	0.018942311
125	0x3c224f4b	0.0099066
126	0x3d34cc2e	0.044140033
127	0xbcc68dc0	-0.024237514
128	0x39d33026	0.0004028093
129	0x3c956503	0.018236643
130	0xbc8253b6	-0.015909057
131	0xbd21dd66	-0.039517783
132	0x3c6f0313	0.014588135
133	0x3bbb305f	0.0057125534
134	0xbd01c2ac	-0.031679794
135	0x3c96f90b	0.0184293
136	0xbd1521c0	-0.03640914
137	0xbd32622e	-0.043550663
138	0x3d1e670f	0.038672503
139	0xbd101c56	-0.035183273
140	0x3d08c996	0.033395372
141	0xbca998f7	-0.020702822
142	0xbd4900f7	-0.049073186
143	0x3ce18d67	0.027533246
144	0xb94983fb	-0.0001921802
145	0xbc1068bf	-0.008814036
146	0x3c79862e	0.015229745
147	0xbc82af3d	-0.0159527
148	0x3cc8aa1e	0.02449518
149	0xbc5cd6ea	-0.013478974
150	0xbb345b73	-0.0027520328
151	0xbbc84b8b	-0.006112521
152	0x3c15f2c6	0.00915212
153	0xbca1b2a1	-0.019738497
154	0x3b649301	0.003487766
155	0xbd144b8c	-0.03620486
156	0x3c14a1cc	0.0090717785
157	0x3d2668db	0.04062734
158	0xbd369610	-0.044576705
159	0xbd1e9913	-0.0387202
160	0xbba19d4e	-0.0049320823
161	0xbc49df68	-0.012321331
162	0x3d26478a	0.04059557
163	0x3c0f1ff9	0.00873565
164	0x3cf86fa2	0.030326668
165	0x3d2982d4	0.041384533
166	0x3c3a772b	0.011380951
167	0xbd15be69	-0.036558542
168	0xbb687585	-0.0035470438
169	0x3cec0b96	0.028814118
170	0x3c9c5f21	0.01908833
171	0xbd25d343	-0.040484678
172	0x3c7ebb34	0.015547562
173	0x3d07f642	0.033193834
174	0xbb825985	-0.0039779567
175	0x3cdc1bfe	0.026868816
176	0xbc6cf86b	-0.014463524
177	0x3bf35164	0.007425474
178	0x3cfadd33	0.030623054
179	0xbcb257e7	-0.02177043
180	0x3be554b7	0.006998624
181	0xbcccfe9f	-0.025023757
182	0x3cc54fd8	0.024085924
183	0x3ce9aaab	0.028523764
184	0xbd4ea1b4	-0.05044718
185	0xbd34aac8	-0.044108182
186	0x3d15dd10	0.036587775
187	0xbc876a68	-0.01653023
188	0x3c9cd934	0.01914654
189	0x3d4453e5	0.04793157
190	0x3cfadb5c	0.030622177
191	0x3b0a9cfb	0.0021150697
192	0x3c8bbe3c	0.017058484
193	0x3ca8d1fd	0.020607943
194	0x3c441f1c	0.011970308
195	0xbcf4108e	-0.02979305
196	0x3c5caa0d	0.013468278
197	0x3b3fc48d	0.002926144
198	0xba99da04	-0.0011737947
199	0x3cf7141e	0.03016096
200	0xbbc5f07f	-0.0060406323
201	0x3a79bb8c	0.0009526543
202	0x3ccfb704	0.025355823
203	0xbd2b47dd	-0.04181658
204	0x3be9ee5f	0.0071390118
205	0x3c4436a3	0.011975917
206	0x3b8dfeed	0.004333368
207	0x3d21629a	0.039400674
208	0xbab855c5	-0.0014063647
209	0xbd286e0e	-0.04112058
210	0xbc9d4aff	-0.0192008
211	0xbc6e3429	-0.014538803
212	0xbd0235e0	-0.03178966
213	0x3d4c4d73	0.04987855
214	0x3d033bda	0.0320395
215	0xbc44905a	-0.011997307
216	0xbc9336b9	-0.01797043
217	0x3ce6dcf8	0.028181538
218	0xbd231783	-0.039817344
219	0x3c21d385	0.00987709
220	0x3d2d5ee4	0.042326823
221	0x3d4584ec	0.048222467
222	0xbd4e4f4f	-0.050368603
223	0x3c2693c1	0.010167063
224	0xbd293b11	-0.041316096
225	0x3d0c08f8	0.03418824
226	0xba36c921	-0.00069727196
227	0x3c43cf58	0.01195129
228	0x3d267eda	0.04064832
229	0xbd4bf3a4	-0.0497929
230	0xbc57c0ec	-0.013168555
231	0x3cefee76	0.029288512
232	0xbb4d3342	-0.003131107
233	0x3d2c48f5	0.042061765
234	0x3c76d07d	0.015064356
235	0x3bc84ce1	0.0061126803
236	0x3cd56151	0.02604738
237	0xbcc74d9a	-0.024328995
238	0xbc8918bc	-0.016735427
239	0x3c36526c	0.011128049
240	0x3d394c0e	0.045238547
241	0x3c9fdd98	0.019514844
242	0x3d0d46ab	0.034491222
243	0x3d033f58	0.03204283
244	0x3b298352	0.0025865627
245	0xbbcbc1d0	-0.0062181726
246	0xbcbdc1d5	-0.023163715
247	0xbd137408	-0.035999328
248	0x3ca98043	0.020691043
249	0x3ba3a0f8	0.004993554
250	0xbc54c358	-0.012986027
251	0x3c8ec69f	0.017428694
252	0x3c513dd1	0.012771086
253	0x3cc37db7	0.023863656
254	0xbd3a8a2c	-0.045541927
255	0xbc990ca9	-0.018682795
