outputs/ppo_synthetic_v2/epoch-0/score_head.pt (torch, 3453 bytes, 1 tensors)

weight f4 [1, 384]
00000000: a896 373c 3d47 af3b c566 11bb d479 1c3d
00000010: 25e2 d2bc 4328 cbbc 51e1 2e3d f7d2 9cbc
00000020: 29aa bf3c a3ac b5bc 29f0 b93c 3841 7f3b
00000030: 0f48 01bd 32d5 bfbb 8636 22bd 8ed9 2bbd
00000040: f6f8 683c cc98 91bc 8ebb 003d c257 6fbc
00000050: 807a b2bc 2a77 a63c 4de5 b9bc 9b03 113d
00000060: 293c e63b 10d6 02bc 3240 933c 18cf 9c3c
00000070: 7e24 c8bc 6a99 bcbc 03a8 693c fe81 48bc
00000080: 82a1 b83c 89e4 ad3c b12d cdbc 8d98 3fbc
00000090: 8dcd 0d3d 041e 90bc ef88 9d3c e108 2fbd
000000a0: 1a7c a83a bc89 2dbb e6d5 473b af70 353d
000000b0: f06b 183d fb89 d73c af5b c23c c8c5 9fbc
000000c0: 6a61 3dbd 78f0 e03c e2e1 25bd 23ed 023d
000000d0: 3fb6 543c 5669 293d 95e3 1c3d afe0 143d
000000e0: 3e5e 2fbc 1f09 16bd 1766 36bd 0ae2 433d
000000f0: d17b 98bc ea6b 143d 6175 f3bc 7f23 09bd
00000100: 870a f13c a6b5 a0bc 3d82 653b 5e76 bbbc
00000110: 04b4 06bc 8909 0f3c bfb0 2b3d c211 e03c
00000120: d6cc 0cbd 91af 0ebd d06b 42bd 162d 02bc
00000130: 2da1 f53c 9362 dcbb 3cf1 263b 8bce a1ba
00000140: 250c 9cbc c775 2bbd bc81 bd3b 3b10 de3c
00000150: 7d3c 11bc 7ba5 863b f6da 29bd 468f 433b
00000160: c9dc 17bd 56de b43c 9302 db3b beee 2f3d
00000170: d96e 903c fd62 5bbb 7f1c 923c 6dd0 05bc
00000180: 394c 16bd db3d 2d3d 8e8b 35bb e38f 25bd
00000190: c5f3 9c3a 518e f3bc ef67 063d af6f 32bc
000001a0: b3e9 433d 2071 f2bc 4ede 2a3d 1c41 29bd
000001b0: b2d0 9d3c f22d 233d dbe9 223d 84d1 c73b
000001c0: 9d93 36bd ed56 123d fe77 87bc 9485 26bd
000001d0: 77f4 1e3d d7a9 0b3d 24c9 8dbc 990c 2dbd
000001e0: cc31 313c fedf 10bd 54a3 3abd 12ba 1bbc
000001f0: 7f4f a13c 8c9e 393c 4686 3c3d 559d bebc
00000200: 3c5c 70ba 3620 8d3c e0ed 87bc d295 28bd
00000210: 89a1 5f3c 68a7 043c 2a50 02bd efd8 a33c
00000220: 1bdf 16bd 7c3a 35bd d6fd 1e3d 221d 16bd
00000230: c02b 0e3d 0a31 b4bc 2d6f 4ebd 4f05 ee3c
00000240: 0977 68ba 89b9 33bc 71ad 6f3c 60c8 8ebc
00000250: 4b1e d33c c1b4 43bc a076 0bbb e3d1 fdbb
00000260: 4463 1a3c d6a0 aebc 24e1 4c3b 02b5 18bd
00000270: 0264 f93b b387 2e3d b393 3ebd 0470 23bd
00000280: e87f 63bb 0fbb 60bc 776c 2c3d ad99 073c
00000290: dc7e 073d ca2b 323d d1e1 2a3c 0690 1cbd
000002a0: 88c7 8dbb 83cb f13c 92e3 a63c ce73 2cbd
000002b0: 05c1 673c 7ca1 0d3d 7fb9 bcbb 78d3 e73c
000002c0: a208 83bc 7193 1b3c 2f09 023d 193e c0bc
000002d0: 0cb1 123c d5d9 d2bc bcf9 cb3c f0df fc3c
000002e0: e5c4 4fbd 5a49 3cbd bab5 193d 4f4e 81bc
000002f0: d100 a33c c5cf 4a3d 29b2 033d ed36 1b3a
00000300: a964 963c d22f b33c ee7a 653c a12c fcbc
00000310: b387 713c 77c2 743b 7544 b1ba c80e fe3c
00000320: f7cd d5bb 77f5 3bb9 a04c d93c b53f 2cbd
00000330: 9e4f ee3b 0753 633c d79d ac3b 402e 263d
00000340: 0ca2 f1ba a968 2ebd 85e5 aabc c100 82bc
00000350: 772b 05bd bbc4 523d 1653 023d 6c03 41bc
00000360: fcf8 9dbc 2932 f53c d675 2bbd 6a7d 213c
00000370: 05a0 333d 2e9b 483d 077f 52bd 3dab 1a3c
00000380: cf8a 23bd f94a 103d f4d0 4a39 1840 443c
00000390: fc0b 2c3d 7356 50bd 3004 74bc 57ed fb3c
000003a0: 2ef1 b9bb 6684 323d cab4 873c 41ae e73b
000003b0: 29bd e03c 5b32 d5bc 00aa 97bc 6776 223c
000003c0: 6cdf 3e3d 5e94 a93c 3301 093d befc fc3c
000003d0: 51d6 933b 1597 febb 6c8e b6bc 33a1 19bd
000003e0: 6653 b03c 2660 803b 9b5d 54bc 556b 9e3c
000003f0: 67b1 703c 7f6f d43c 4017 3fbd 04ff 89bc
0.011205353 0.0053490684 -0.00221865 0.03820212 -0.0257426 -0.024799472 0.042695347 -0.019143565
0.023396568 -0.022177046 0.022697525 0.0038948786 -0.03156286 -0.0058542723 -0.03960278 -0.041955523
0.014219513 -0.017773055 0.031428866 -0.014608325 -0.021786928 0.020320494 -0.022692347 0.03540383
0.0070262146 -0.007985607 0.017974947 0.019141719 -0.024431463 -0.023022372 0.0142612485 -0.012238024
0.02253795 0.021227138 -0.025046201 -0.011694086 0.034619857 -0.017592438 0.019230334 -0.042733077
0.0012854368 -0.00264798 0.0030492484 0.044296917 0.037212312 0.026310911 0.023725359 -0.01950349
-0.04623548 0.027458414 -0.04049862 0.031964432 0.012982904 0.04136022 0.038302977 0.036347087
-0.010703621 -0.036629792 -0.044530954 0.04782299 -0.018613728 0.036235727 -0.029719057 -0.033481117
0.029423965 -0.019617867 0.0035020255 -0.02288359 -0.00822163 0.008730301 0.041916605 0.027352218
-0.034375034 -0.034835402 -0.0474661 -0.00794532 0.029984081 -0.006725618 0.0025473377 -0.001234488
-0.01904876 -0.041860368 0.005783288 0.027107349 -0.008864519 0.0041090823 -0.041468583 0.0029840036
-0.03707579 0.022078674 0.0066836565 0.04295229 0.017630981 -0.003347575 0.017835854 -0.008167368
-0.036693785 0.042295318 -0.002770159 -0.040420424 0.0011974504 -0.029730948 0.032813963 -0.010890885
0.047830295 -0.029594958 0.041715913 -0.04132186 0.019264553 0.03983874 0.039773803 0.0060979743
-0.04457437 0.03572743 -0.016536709 -0.040654734 0.03880736 0.03409752 -0.017307825 -0.042248342
0.010815095 -0.035369866 -0.045565918 -0.009504812 0.019691227 0.011329304 0.04602649 -0.023268381
-0.00091690174 0.017227273 -0.01659292 -0.041158505 0.013649353 0.008096553 -0.03181473 0.020000903
-0.036833864 -0.04424523 0.038816296 -0.036648877 0.034709692 -0.02199604 -0.050398994 0.029055266
-0.0008867835 -0.010969528 0.014628754 -0.01742953 0.02577128 -0.011944951 -0.0021280423 -0.0077459677
0.009423081 -0.021316927 0.0031262124 -0.037281998 0.007610799 0.04260988 -0.046527576 -0.03990175
-0.003471369 -0.013716473 0.042095628 0.008276385 0.033079967 0.04349879 0.010429815 -0.03822329
-0.0043267645 0.029515987 0.020372186 -0.042102627 0.014145141 0.03457783 -0.0057594175 0.028299078
-0.015995327 0.009495602 0.03174704 -0.02346711 0.008953344 -0.025738636 0.024899356 0.0308685
-0.050724883 -0.04596839 0.037526824 -0.01578441 0.01989785 0.04951455 0.03215233 0.00059209653
0.018358545 0.021873388 0.0140063595 -0.030783 0.014741826 0.0037347355 -0.001352443 0.031012908
-0.006524797 -0.00017925152 0.026525795 -0.042052943 0.0072726747 0.013874776 0.0052678394 0.04057145
-0.0018435135 -0.04258028 -0.020861397 -0.0158695 -0.032512154 0.051457148 0.03181752 -0.011780601
-0.019283764 0.029931145 -0.041860424 0.009856561 0.04385378 0.048976116 -0.051390674 0.00944024
-0.0399273 0.03522775 0.00019342062 0.011978172 0.042003617 -0.050863694 -0.0148935765 0.03075282
-0.005674503 0.043583296 0.0165657 0.007070333 0.027433949 -0.026024988 -0.01851368 0.009915925
0.04659979 0.02070063 0.03344841 0.030882236 0.0045116325 -0.007769475 -0.022284709 -0.037507247
0.021524142 0.003917712 -0.01296177 0.01933829 0.0146907335 0.025932072 -0.046653032 -0.016845234
