outputs/ppo_synthetic_v2/epoch-1/score_head.pt (torch, 3453 bytes, 1 tensors)

weight f4 [1, 384]
0.01118575 0.005331372 -0.0021995301 0.038181115 -0.025722008 -0.024791623 0.042674176 -0.01912766
0.02337779 -0.022155965 0.022718094 0.0038877842 -0.03157979 -0.0058340575 -0.03958115 -0.041934628
0.014201651 -0.017754061 0.03140752 -0.01459151 -0.021766827 0.020298788 -0.022673067 0.035382308
0.0070134504 -0.007988893 0.017954258 0.019120298 -0.024411038 -0.023040652 0.014239654 -0.012233282
0.02251673 0.021206547 -0.025028158 -0.011673122 0.03459996 -0.017610112 0.019209813 -0.042711608
0.0012927672 -0.0026426448 0.003027763 0.04427514 0.03719298 0.026289431 0.023703868 -0.019486668
-0.046215586 0.027439427 -0.040488325 0.031942986 0.012964948 0.04133854 0.03828166 0.03632718
-0.0107160015 -0.03661103 -0.04450917 0.047802534 -0.018592224 0.036218334 -0.029714638 -0.03346169
0.02941736 -0.019597307 0.0034864072 -0.02286569 -0.00820158 0.008718067 0.041895263 0.027331823
-0.034355883 -0.034816083 -0.047444306 -0.007965462 0.029963696 -0.0067106406 0.0025684107 -0.0012527081
-0.01902785 -0.0418404 0.005777082 0.027114164 -0.0088444585 0.004126063 -0.04144767 0.0030016187
-0.03705412 0.022059355 0.0066660694 0.042931017 0.017635856 -0.003326486 0.017819438 -0.008152452
-0.036674496 0.04228328 -0.0027884936 -0.040401988 0.0011774135 -0.029722895 0.032804374 -0.010910714
0.04781028 -0.029580759 0.041695762 -0.0413034 0.019286074 0.03981718 0.039752156 0.006090505
-0.04455276 0.035707302 -0.016517967 -0.040634073 0.038795065 0.034076788 -0.017286072 -0.042227015
0.010834988 -0.03535676 -0.045551855 -0.009489306 0.019681126 0.01130832 0.04600483 -0.02326664
-0.0008952011 0.01722376 -0.016589032 -0.041138317 0.013659731 0.008075571 -0.031800795 0.019979995
-0.03681562 -0.044225797 0.038799085 -0.036626913 0.034688435 -0.021976117 -0.050377913 0.029034095
-0.00087850675 -0.010951726 0.014618584 -0.017409459 0.025751917 -0.011965367 -0.0021261615 -0.007726984
0.009431245 -0.021298695 0.003127948 -0.03726252 0.007628744 0.042590033 -0.046506416 -0.03988186
-0.0034863614 -0.01370427 0.042076323 0.0082638925 0.033058453 0.0434773 0.010424857 -0.038203776
-0.004322784 0.029498847 0.020353388 -0.042081077 0.014160729 0.034557257 -0.0057395804 0.028279029
-0.015973456 0.009475888 0.03172699 -0.023445565 0.00893158 -0.025721954 0.024882976 0.030847136
-0.05071 -0.045948707 0.0375061 -0.01579301 0.019878404 0.049494684 0.032133434 0.0006053811
0.01833731 0.02185436 0.013984502 -0.030763445 0.014722241 0.003714588 -0.0013466914 0.030995185
-0.006513333 -0.00017875095 0.026505407 -0.04203429 0.0072835865 0.013856129 0.0052486937 0.040551014
-0.0018279448 -0.042559277 -0.020840151 -0.015849503 -0.032496378 0.051436957 0.031833775 -0.011785014
-0.019263169 0.029912747 -0.04184434 0.00984177 0.043832332 0.04895698 -0.051373083 0.009448802
-0.03991848 0.035208404 0.00019263093 0.01197836 0.041983828 -0.050843373 -0.014873329 0.030731898
-0.005653061 0.043564577 0.016546424 0.0070498125 0.027414054 -0.02600431 -0.018494768 0.009931955
0.04657857 0.020680074 0.033436112 0.03088539 0.004490878 -0.0077493857 -0.022292396 -0.037485275
0.021504164 0.0039349482 -0.012968143 0.019318866 0.014669613 0.025911126 -0.04663267 -0.016857086
00000000: 7044 373c cab2 ae3b fe25 10bb cd63 1c3d
00000010: f6b6 d2bc cd17 cbbc 1ecb 2e3d 9cb1 9cbc
00000020: c782 bf3c 6d80 b5bc 4c1b ba3c 32ca 7e3b
00000030: cf59 01bd 9f2b bfbb d81f 22bd a5c3 2bbd
00000040: 0bae 683c f770 91bc 2ca5 003d 3b11 6fbc
00000050: 5850 b2bc a549 a63c debc b9bc 0aed 103d
00000060: 16d1 e53b d9e3 02bc cf14 933c 2ca2 9c3c
00000070: a8f9 c7bc c0bf bcbc 704d 693c 1b6e 48bc
00000080: 0175 b83c 5ab9 ad3c da07 cdbc 9f40 3fbc
00000090: b0b8 0d3d 1543 90bc e65d 9d3c 5ef2 2ebd
000000a0: 1272 a93a 3930 2dbb 6f6d 463b d959 353d
000000b0: ab57 183d ef5c d73c 9d2e c23c 81a2 9fbc
000000c0: 8e4c 3dbd a6c8 e03c 16d7 25bd a6d6 023d
000000d0: ef6a 543c 9a52 293d 3bcd 1c3d cfcb 143d
000000e0: 2b92 2fbc 73f5 15bd 3f4f 36bd 97cc 433d
000000f0: b84e 98bc ad59 143d 1d6c f3bc 200f 09bd
00000100: adfc f03c 888a a0bc 357c 643b d450 bbbc
00000110: eb5f 06bc 39d6 0e3c 5e9a 2b3d fde6 df3c
00000120: c1b8 0cbd 4f9b 0ebd f654 42bd 9281 02bc
00000130: 6d76 f53c efe4 dbbb c852 283b e931 a4ba
00000140: 4be0 9bbc d760 2bbd ad4d bd3b 861e de3c
00000150: 59e8 10bc ed33 873b 08c5 29bd ceb6 443b
00000160: 10c6 17bd d2b5 b43c 0b6f da3b 6fd8 2f3d
00000170: 1279 903c 2d01 5abb 12fa 913c dd91 05bc
00000180: ff37 16bd 3c31 2d3d 29bf 36bb 8e7c 25bd
00000190: 7153 9a3a 6e7d f3bc e15d 063d dac2 32bc
000001a0: b6d4 433d 5953 f2bc 2dc9 2a3d c12d 29bd
000001b0: d4fd 9d3c 5717 233d 28d3 223d dc92 c73b
000001c0: f47c 36bd d241 123d b050 87bc ea6f 26bd
000001d0: 93e7 1e3d 1a94 0b3d 859b 8dbc 3cf6 2cbd
000001e0: 3c85 313c 40d2 10bd 9594 3abd 0979 1bbc
000001f0: 503a a13c 8846 393c 906f 3c3d ae99 bebc
00000200: eeab 6aba d818 8d3c b9e5 87bc a780 28bd
00000210: 10cd 5f3c 664f 043c 8d41 02bd 16ad a33c
00000220: facb 16bd 1c26 35bd caeb 1e3d 1a06 16bd
00000230: 7615 0e3d 4207 b4bc 1259 4ebd e9d8 ed3c
00000240: 974b 66ba de6e 33bc c982 6f3c 489e 8ebc
00000250: aff5 d23c 630a 44bc 1257 0bbb a432 fdbb
00000260: 8285 1a3c 9a7a aebc 42fe 4c3b 96a0 18bd
00000270: 8bfa f93b e372 2e3d 837d 3ebd 295b 23bd
00000280: 707b 64bb e087 60bc 3958 2c3d 4765 073c
00000290: 4d68 073d 4115 323d 05cd 2a3c 907b 1cbd
000002a0: 24a6 8dbb 91a7 f13c 26bc a63c 355d 2cbd
000002b0: 6702 683c e98b 0d3d 1713 bcbb 6ca9 e73c
000002c0: c4da 82bc c140 1b3c 29f4 013d ea10 c0bc
000002d0: c355 123c d9b6 d2bc 62d7 cb3c 22b3 fc3c
000002e0: 4ab5 4fbd b634 3cbd ff9f 193d 5860 81bc
000002f0: 09d8 a23c f0ba 4a3d 599e 033d 70b2 1e3a
00000300: 2038 963c ea07 b33c 411f 653c 9f03 fcbc
00000310: 8e35 713c 7270 733b 7783 b0ba 9de9 fd3c
00000320: cc6d d5bb 186f 3bb9 de21 d93c 262c 2cbd
00000330: 27ab ee3b d104 633c 3cfd ab3b d218 263d
00000340: a697 efba a352 2ebd f7b8 aabc d1d6 81bc
00000350: ec1a 05bd 8faf 523d 2264 023d ee15 41bc
00000360: cbcd 9dbc 940b f53c f864 2bbd 603f 213c
00000370: 8889 333d 1d87 483d 956c 52bd 26cf 1a3c
00000380: 8f81 23bd b036 103d f9fc 4939 e240 443c
00000390: 3cf7 2b3d 2441 50bd 43af 73bc 76c1 fb3c
000003a0: 503d b9bb c570 323d 5e8c 873c 1d02 e73b
000003b0: 7093 e03c fe06 d5bc 5782 97bc a3b9 223c
000003c0: 2cc9 3e3d 4269 a93c 4ef4 083d 5b03 fd3c
000003d0: 3728 933b 8fee fdbb 8b9e b6bc 298a 19bd
000003e0: 8029 b03c bdf0 803b 5678 54bc 9942 9e3c
000003f0: d158 703c 9243 d43c e601 3fbd df17 8abc
