outputs/ppo_synthetic_overfit/epoch-0/score_head.pt (torch, 3453 bytes, 1 tensors)

weight f4 [1, 384]
000000 c0 bb 30 3c e9 7f 9d 3b 8a 30 e2 ba c4 ed 1b 3d
       0.010786951 0.004806508 -0.0017256897 0.038068548
000010 5b cb cf bc dd 3c cb bc 8d 12 2d 3d 0c b2 94 bc
       -0.025365522 -0.024809295 0.04225402 -0.018151306
000020 df 84 bc 3c c2 04 b3 bc 90 8b bb 3c 09 22 79 3b
       0.023012577 -0.021852855 0.022893697 0.0038014671
000030 27 b6 03 bd 32 fe a1 bb 8b 39 1f bd b0 46 29 bd
       -0.032156136 -0.0049436325 -0.038873237 -0.04132718
000040 30 0e 5b 3c f4 1c 90 bc dc 11 ff 3c 16 fa 72 bc
       0.013370082 -0.01759193 0.031136446 -0.014830133
000050 03 3a b1 bc b2 17 a5 3c f7 a7 b5 bc 94 0a 0f 3d
       -0.021634107 0.0201529 -0.022174818 0.034922197
000060 53 35 df 3b 76 48 0e bc 8a ce 89 3c 12 b6 98 3c
       0.0068117767 -0.008684268 0.016822118 0.018641505
000070 88 45 c6 bc c0 e4 c6 bc 68 bb 5f 3c dc e9 3c bc
       -0.024203077 -0.024278998 0.013655521 -0.011530366
000080 fb ff b2 3c 9d ed a3 3c 40 3d cd bc 36 86 30 bc
       0.021850577 0.020010764 -0.02505362 -0.010774186
000090 49 d8 0c 3d 3e c3 8f bc 86 78 9a 3c ea 55 2d bd
       0.034385953 -0.017549153 0.018856298 -0.042318262
0000a0 af 08 f1 3a b0 25 29 bb bd 7f 22 3b 58 5e 32 3d
       0.0018389429 -0.0025809817 0.0024795376 0.043547004
0000b0 db 41 15 3d 4a 81 d1 3c d0 17 be 3c e4 bc 9c bc
       0.036439758 0.025574345 0.023204714 -0.019133039
0000c0 05 dc 3a bd 92 1f dc 3c 63 c5 26 bd dc cd 00 3d
       -0.045619983 0.026870523 -0.040715586 0.031446323
0000d0 f9 44 49 3c 7a de 27 3d 31 cd 1a 3d f5 2b 13 3d
       0.012284511 0.040983655 0.037793342 0.035930593
0000e0 1c 6b 24 bc 32 38 15 bd 70 7c 33 bd c2 27 41 3d
       -0.0100353025 -0.036430545 -0.043819845 0.047157057
0000f0 09 37 96 bc ab 2f 15 3d c9 46 f2 bc 29 df 07 bd
       -0.01833679 0.036422413 -0.029574769 -0.033171806
000100 b8 67 ee 3c 86 90 a0 bc 02 91 4c 3b 1f fb b8 bc
       0.029102191 -0.019600164 0.003121436 -0.022580681
000110 fb 19 01 bc 10 4b 12 3c ae 14 29 3d 9e d6 dc 3c
       -0.007879729 0.008929029 0.041279487 0.026957806
000120 24 10 0c bd 17 cd 0c bd 9d 81 42 bd cc 0f 0a bc
       -0.03419508 -0.034375276 -0.04748689 -0.008426618
000130 b6 e0 f2 3c 17 00 d4 bb 57 25 39 3b 31 20 75 ba
       0.029648166 -0.0064697373 0.0028251016 -0.0009350805
000140 7b fd 97 bc e7 57 28 bd 5d 51 a9 3b 1f a3 e1 3c
       -0.018553486 -0.041099455 0.00516717 0.027543603
000150 ba 90 fc bb 25 aa 79 3b 3b aa 29 bd 36 ef 44 3b
       -0.0077076824 0.0038095799 -0.04142211 0.0030049807
000160 2f b4 14 bd f6 09 aa 3c 5c 1c df 3b fb 10 2d 3d
       -0.03630465 0.020756703 0.0068088006 0.042252522
000170 2a bb 90 3c f1 f2 14 bb fe 69 8f 3c 53 fb 06 bc
       0.017667372 -0.0022727812 0.017506596 -0.008238631
000180 b7 fd 0f bd 3d 83 2c 3d 4c 83 73 bb 81 99 23 bd
       -0.03515407 0.042117346 -0.0037157116 -0.039941315
000190 39 55 7a 3a c7 d1 f0 bc 94 22 07 3d 93 81 2f bc
       0.00095494423 -0.029396905 0.03299196 -0.010712045
0001a0 d4 46 41 3d a1 ba ee bc de b8 28 3d 02 d4 28 bd
       0.047186688 -0.029141726 0.041191928 -0.04121781
0001b0 f9 7e a4 3c 1e 6c 1c 3d a9 d6 1f 3d d8 b6 a1 3b
       0.020080077 0.038189046 0.039023075 0.0049351268
0001c0 28 d2 33 bd 6f 61 0c 3d 4b da 84 bc b2 f0 23 bd
       -0.043901592 0.034272607 -0.016217371 -0.040024467
0001d0 ad 0a 20 3d 8e ce 0a 3d 42 08 88 bc eb bf 2a bd
       0.03907268 0.033888392 -0.0166055 -0.041686933
0001e0 a0 16 36 3c 8c 11 11 bd 9e 90 37 bd 91 1d 0b bc
       0.011113793 -0.035417125 -0.044815652 -0.008490936
0001f0 3d 53 9e 3c d4 bf 32 3c 4b 3d 39 3d f1 0a c2 bc
       0.0193268 0.010909993 0.04522447 -0.023686858
000200 9a f2 42 ba 00 88 91 3c 36 75 84 bc c0 ee 25 bd
       -0.0007436663 0.017765045 -0.016169172 -0.040510893
000210 50 c5 66 3c 28 f8 db 3b 8f 26 03 bd 53 15 9f 3c
       0.014085129 0.006712932 -0.032019194 0.019419348
000220 7f 73 16 bd a0 5d 33 bd d4 54 1e 3d 39 50 14 bd
       -0.03673124 -0.04379046 0.038655117 -0.03620932
000230 f2 c6 0c 3d 82 b3 af bc 08 58 4d bd be b9 ea 3c
       0.034369417 -0.0214479 -0.05013278 0.028653022
000240 0b 36 4d ba 35 ef 20 bc 2d b8 77 3c 83 5e 8b bc
       -0.00078281824 -0.009822656 0.0151195945 -0.01701284
000250 2d 0e ce 3c 2e 97 4a bc 1f 52 37 bb 17 0e e8 bb
       0.025153244 -0.012365146 -0.0027972532 -0.0070817578
000260 e7 3c 1c 3c a0 c2 a8 bc e4 5f 6f 3b cd 21 18 bd
       0.009536005 -0.020600617 0.003652566 -0.03714161
000270 ff 90 02 3c 15 03 2b 3d 1d 08 3b bd 3e fa 22 bd
       0.00796914 0.041750986 -0.045662034 -0.03978943
000280 67 0e 85 bb cb 5c 50 bc 59 b8 2a 3d 9c 2e 0c 3c
       -0.004060555 -0.012717436 0.041679714 0.008556034
000290 09 90 00 3d 2f 53 2e 3d b9 e2 36 3c 63 03 19 bd
       0.031387363 0.0425598 0.011162453 -0.037356745
0002a0 07 df 81 bb c2 5b ef 3c c5 ad a5 3c 17 fb 29 bd
       -0.0039633545 0.029218558 0.020224461 -0.041499224
0002b0 9e 6e 6f 3c 88 f8 0b 3d 40 9c a5 bb 47 e9 e4 3c
       0.014613776 0.034172565 -0.005054027 0.027943267
0002c0 88 d6 7e bc e1 59 0b 3c 2f 98 00 3d 3b 03 bb bc
       -0.015554078 0.0085053155 0.031395134 -0.022828689
0002d0 dc 1a 08 3c 50 31 d0 bc 5c bc cb 3c eb 98 f3 3c
       0.008307185 -0.025414139 0.02487009 0.029736003
0002e0 39 15 4f bd 2c db 38 bd 86 54 19 3d f1 4a 85 bc
       -0.05055735 -0.045130894 0.037434123 -0.016271086
0002f0 57 f1 a1 3c aa c5 48 3d 5c a5 01 3d c0 78 94 3a
       0.0197684 0.049016632 0.03165184 0.001132749
000300 b7 ce 93 3c b0 81 af 3c f5 ef 56 3c 5e ae fa bc
       0.018042905 0.021424145 0.013118734 -0.030600723
000310 67 66 6d 3c a9 fa 81 3b 0c 9a ca ba ec df fe 3c
       0.014489747 0.0039666486 -0.0015457286 0.031112634
000320 d7 9e dc bb 8c e6 3d 39 17 96 d8 3c fd 65 2b bd
       -0.0067328024 0.0001811033 0.026438756 -0.04184531
000330 7f 2f e8 3b cb cc 51 3c 82 14 ac 3b b1 02 25 3d
       0.00708574 0.012805174 0.005251468 0.04028577
000340 a6 8a 03 bb 76 f9 2c bd a9 86 a5 bc c0 4e 78 bc
       -0.0020071655 -0.042230092 -0.020205813 -0.015155494
000350 ee 43 05 bd 70 8c 50 3d 5e b4 03 3d ce bc 42 bc
       -0.032535486 0.05091518 0.032154433 -0.011885835
000360 05 53 9b bc 5f 72 ee 3c b0 52 26 bd 78 ec 21 3c
       -0.018960485 0.02910727 -0.0406062 0.009883039
000370 fb 83 31 3d e1 ac 48 3d 95 e9 51 bd fe 8b 1c 3c
       0.043338757 0.048992995 -0.05124815 0.009554861
000380 b2 aa 26 bd cc 1b 10 3d 0a 4d 9f b9 05 09 3b 3c
       -0.04069013 0.03518276 -0.00030384242 0.011415725
000390 0d fc 29 3d 65 ec 4f bd 3f b4 64 bc b5 0d f8 3c
       0.04150014 -0.050762553 -0.01395899 0.030279974
0003a0 4b 68 8f bb 55 ae 30 3d b8 ab 82 3c 4a 08 e5 3b
       -0.0043764464 0.043135006 0.015951023 0.0069895135
0003b0 cd 21 dc 3c f1 53 d0 bc 1c fc 8f bc 05 e7 2e 3c
       0.026871586 -0.025430651 -0.01757627 0.010675197
0003c0 9a 97 3d 3d 77 07 a8 3c 09 46 0d 3d 4d 08 ff 3c
       0.046287157 0.020511372 0.03449062 0.031131888
0003d0 0f 05 6d 3b ff 2e f1 bb 6b bf b7 bc 85 f3 17 bd
       0.0036166345 -0.0073603387 -0.022430142 -0.037097473
0003e0 27 e7 af 3c b9 81 97 3b 69 45 54 bc 8c 69 96 3c
       0.021472527 0.0046236184 -0.012956002 0.018360876
0003f0 cf b2 61 3c 74 fb cc 3c 55 58 3e bd 7a e5 92 bc
       0.013775541 0.025022246 -0.04647096 -0.017931689
