outputs/ppo_synthetic_overfit/epoch-1/score_head.pt (torch, 3453 bytes, 1 tensors)

weight f4 [1, 384]
000000 68 8b 23 3c 41 b2 8f 3b 01 9a c2 ba f9 ac 18 3d
       0.0099819675 0.004385263 -0.0014846922 0.037274335
000010 97 f6 c9 bc 85 b9 ca bc f4 d3 29 3d 49 5f 91 bc
       -0.024653716 -0.024746666 0.0414619 -0.01774563
000020 4e 38 b6 3c de d7 ab bc 1c 1f c3 3c 59 c9 57 3b
       0.022243645 -0.020976957 0.023818545 0.003292641
000030 59 c5 06 bd a1 6b 8a bb c3 76 1b bd 93 ec 25 bd
       -0.03290305 -0.004224256 -0.037955057 -0.040508818
000040 24 ec 50 3c d2 5d 8c bc 53 b0 f7 3c 19 29 69 bc
       0.012751613 -0.01713458 0.030235445 -0.01423099
000050 30 ea aa bc 97 f7 9d 3c 31 16 b1 bc f7 e1 0b 3d
       -0.020863622 0.0192831 -0.021617027 0.034151044
000060 17 b5 c5 3b 73 7d 1c bc 3d a4 82 3c 72 ca 90 3c
       0.0060335505 -0.009551394 0.015947456 0.017674658
000070 36 34 bf bc dd bc ce bc 06 a1 50 3c 04 72 3a bc
       -0.023340326 -0.025236541 0.0127337035 -0.0113797225
000080 b8 dc ab 3c 76 d9 9c 3c 25 07 cb bc 2e 49 22 bc
       0.02097927 0.019146662 -0.02478368 -0.009905143
000090 a3 fb 09 3d db 86 95 bc 0f c7 92 3c 42 e3 29 bd
       0.033687245 -0.01825278 0.017917184 -0.041476496
0000a0 fe dd 0c 3b 0c 2e 38 bb 45 e6 cb 3a 8a 1d 2f 3d
       0.0021494622 -0.0028103618 0.0015556297 0.04275278
0000b0 41 13 12 3d 68 9f c9 3c 71 91 b6 3c 46 60 96 bc
       0.035662893 0.024612144 0.022286149 -0.018356454
0000c0 a9 6a 37 bd ed 57 d7 3c 7d 04 24 bd a4 fe fa 3c
       -0.044779453 0.026287043 -0.040043343 0.030639
0000d0 8a d0 3b 3c dd 0b 24 3d 20 df 17 3d bf 06 10 3d
       0.011463294 0.040050376 0.037078023 0.035162684
0000e0 29 6f 29 bc 26 2a 12 bd 83 a0 2f bd f8 ce 3e 3d
       -0.010341444 -0.035684727 -0.042877685 0.0465841
0000f0 bc a8 8e bc df d0 15 3d 24 07 f1 bc 02 39 04 bd
       -0.017414443 0.036576148 -0.02942235 -0.03228093
000100 e9 0c f2 3c fb 1c 99 bc 2e 94 1f 3b b8 73 b8 bc
       0.029547172 -0.018690577 0.0024349797 -0.022516116
000110 4b 35 e6 bb 60 d0 09 3c b3 4c 25 3d 03 d3 d6 3c
       -0.007025396 0.008411497 0.04035635 0.026223665
000120 cc 24 09 bd 5e bd 09 bd a6 1a 3f bd 53 b7 1b bc
       -0.033482358 -0.03362786 -0.046656273 -0.009504157
000130 29 ee eb 3c 1c d7 bb bb 55 29 7c 3b 36 aa d2 ba
       0.028800087 -0.00573243 0.0038476784 -0.0016072455
000140 e2 f3 8f bc 23 e9 26 bd 69 81 b0 3b fd 98 e3 3c
       -0.017572347 -0.04074968 0.0053865206 0.027782911
000150 0a d5 ea bb 1f 04 90 3b 1d 3f 26 bd a5 2d 67 3b
       -0.0071665095 0.0043950225 -0.040587533 0.003527501
000160 6e c0 10 bd c2 29 a2 3c 85 90 ca 3b 24 eb 29 3d
       -0.035339765 0.019795302 0.006181779 0.041484013
000170 d2 03 91 3c 37 ab ac ba e5 e2 89 3c d8 a7 f9 bb
       0.017702017 -0.0013173585 0.016831825 -0.0076188855
000180 d5 d8 0c bd 1c 01 2a 3d d6 ca 98 bb a2 f5 1f bd
       -0.034386475 0.041504964 -0.004662852 -0.039052613
000190 8a 62 1f 39 d9 83 f0 bc f5 79 06 3d 7c 0b 3e bc
       0.0001520013 -0.029359745 0.03283115 -0.011599418
0001a0 f6 d8 3d 3d 74 64 ec bc a7 6c 25 3d 01 42 26 bd
       0.04634949 -0.028856494 0.040386822 -0.04059029
0001b0 db 28 ab 3c 53 9e 18 3d 9e 0e 1c 3d b6 64 90 3b
       0.020893505 0.037260365 0.038099878 0.004406537
0001c0 d8 5e 30 bd 68 e4 08 3d 0b 7f 79 bc 4b 73 20 bd
       -0.0430592 0.03342095 -0.015228043 -0.039172452
0001d0 64 b0 21 3d b7 27 07 3d f4 c0 80 bc fa e4 27 bd
       0.03947486 0.03299686 -0.015717007 -0.040989853
0001e0 62 86 40 3c 24 5d 0e bd b1 24 36 bd 7a 71 00 bc
       0.011750789 -0.034756795 -0.044468585 -0.007839555
0001f0 7e 0c 9c 3c 2f 3e 24 3c d1 6e 35 3d e4 a6 c5 bc
       0.019048925 0.010024591 0.044295136 -0.024127431
000200 12 50 79 39 b4 f2 94 3c b3 cd 82 bc b6 54 22 bd
       0.00023776319 0.018182136 -0.015967226 -0.039631568
000210 81 2f 6e 3c f6 65 c0 3b 26 0b 02 bd d6 1d 98 3c
       0.014537693 0.0058715297 -0.031748913 0.018568914
000220 96 49 15 bd 3a 57 32 bd 6f 4a 1e 3d ff d3 10 bd
       -0.03644713 -0.043540217 0.038645204 -0.035358425
000230 45 6a 09 3d dc 00 ab bc 79 e0 49 bd 5b 24 e3 3c
       0.033548612 -0.020874433 -0.04928634 0.027727297
000240 ae 7f a2 b9 63 7c 12 bc fc 87 7a 3c 13 70 84 bc
       -0.00030994177 -0.008940789 0.01529121 -0.016166722
000250 b6 b3 c9 3c f3 15 5a bc d2 b1 34 bb 3a 3d d0 bb
       0.024621826 -0.013310897 -0.002757181 -0.006354955
000260 51 fd 16 3c b5 d9 a2 bc 50 32 63 3b 91 ca 14 bd
       0.009215669 -0.019879201 0.003466744 -0.036325995
000270 87 bf 10 3c 66 30 27 3d 15 3d 37 bd b2 86 1f bd
       0.008834726 0.04081764 -0.044735987 -0.038946815
000280 9f fb 9c bb 24 d1 4b bc c9 35 27 3d 2f 23 10 3c
       -0.0047907378 -0.01244 0.040822778 0.008797451
000290 aa db f9 3c 9d 44 2a 3d fb 65 39 3c 30 3c 16 bd
       0.030500252 0.04156934 0.011315818 -0.036678493
0002a0 44 f8 6a bb 78 b5 ec 3c 09 e1 9d 3c c1 8f 26 bd
       -0.0035853544 0.028895125 0.019272344 -0.04066444
0002b0 55 75 7c 3c 71 83 08 3d 40 5a 87 bb 21 96 dd 3c
       0.0154088335 0.033328477 -0.0041306317 0.027049126
0002c0 73 20 70 bc b0 b8 f9 3b 9e 53 fb 3c 6a aa b3 bc
       -0.014656174 0.0076208934 0.03067952 -0.021931846
0002d0 7b 21 ec 3b 1d ef cd bc 76 5d c6 3c d7 63 eb 3c
       0.0072061396 -0.025138432 0.024214488 0.02873413
0002e0 2b b8 4e bd 64 42 35 bd 8c 6d 16 3d c2 86 86 bc
       -0.050468605 -0.04425277 0.036725566 -0.01642168
0002f0 ed ed 9d 3c 28 1b 45 3d a4 ed fb 3c 44 1a 02 3b
       0.01927849 0.0481216 0.030752964 0.0019852081
000300 c4 c8 8c 3c 0c c3 a9 3c d9 1a 47 3c 0f 3e f5 bc
       0.017185576 0.020722888 0.012152397 -0.029936818
000310 d6 14 5f 3c 17 98 49 3b 8e 91 9d ba c8 15 f8 3c
       0.0136158075 0.0030760819 -0.0012021528 0.030283824
000320 12 6f ca bb 07 86 51 3a 7c 08 d1 3c 48 91 2b bd
       -0.0061777914 0.0007992689 0.025516741 -0.041886598
000330 c5 0c e8 3b 39 11 46 3c 23 0c 92 3b 9c 00 22 3d
       0.0070816004 0.012089067 0.004457013 0.039551362
000340 71 1a c7 ba db 29 29 bd 6e b1 9e bc d0 01 6f bc
       -0.0015190375 -0.041299682 -0.019371714 -0.0145878345
000350 6b bb 02 bd 3d f9 4c 3d c2 71 03 3d 80 8c 44 bc
       -0.031917017 0.05004238 0.03209091 -0.011996388
000360 eb 69 94 bc a8 cd e7 3c 28 45 24 bd eb 1e 22 3c
       -0.018116912 0.028296307 -0.040105015 0.009895067
000370 5f 16 2e 3d 51 d2 45 3d 5e de 4e bd 2f b3 27 3c
       0.042501803 0.048296276 -0.050505035 0.010235592
000380 59 af 29 bd 51 a5 0c 3d c5 88 1f ba 97 91 42 3c
       -0.04142699 0.034337346 -0.0006085749 0.011875532
000390 80 df 26 3d dd b1 4c bd 0d 14 5a bc 6d 2b f1 3c
       0.04074049 -0.04997431 -0.013310445 0.029439652
0003a0 85 ef 5b bb 9c fc 2c 3d 9b db 79 3c 5b 3b cd 3b
       -0.0033559513 0.042233095 0.015250112 0.0062631792
0003b0 dd 25 d6 3c df c5 c8 bc f5 34 8a bc ef 97 34 3c
       0.026141101 -0.024508415 -0.016870955 0.011022552
0003c0 5f 40 3a 3d a5 2f a1 3c e1 31 0d 3d 96 b8 02 3d
       0.045471545 0.019676039 0.034471396 0.031914316
0003d0 33 f0 33 3b 24 46 d1 bb c9 e6 bd bc 6a 2a 14 bd
       0.0027456402 -0.0063865352 -0.023181336 -0.03617326
0003e0 6b 8f aa 3c 90 20 a5 3b e8 d7 53 bc e2 d3 8f 3c
       0.02082034 0.005039282 -0.012929894 0.017557088
0003f0 c4 ef 53 3c 6c fd c4 3c 11 36 3b bd 60 96 97 bc
       0.012935583 0.024046622 -0.04570586 -0.018504322
