outputs/ppo_synthetic_overfit/epoch-3/score_head.pt (torch, 3453 bytes, 1 tensors)

weight f4 [1, 384]
00000000: e6e3 203c 0dd6 8c3b a19b b7ba 3718 183d
00000010: 3bea c8bc 9985 cabc 0019 293d 5574 90bc
00000020: a50d b53c 0398 aabc 9a6a c43c 8ac9 503b
00000030: 3496 07bd f8b6 85bb 17b7 1abd e05f 25bd
00000040: ef87 4f3c 54e8 8abc 456d f63c ec23 67bc
00000050: 1cc6 a9bc 9ea4 9c3c ff41 b0bc 6951 0b3d
00000060: 58b8 c13b a950 1fbc df60 813c eea4 8f3c
00000070: 66b3 bdbc bc17 d0bc fce2 4d3c 3a44 39bc
00000080: d88b aa3c b7a3 9b3c f772 cabc 5d74 1fbc
00000090: 4c55 093d 97ab 96bc 6c5f 913c de3c 29bd
000000a0: 9bb7 123b 9946 39bb 7452 b23a 9e86 2e3d
000000b0: 2f71 113d 5826 c83c a355 b53c dd10 95bc
000000c0: 85d0 36bd 6e5d d63c f270 23bd 11d4 f93c
000000d0: 72ab 393c 8f51 233d 2b40 173d a574 0f3d
000000e0: 5f4a 2abc 8495 11bd 9beb 2ebd c03a 3e3d
000000f0: 5a49 8dbc 6f02 163d c4ca f0bc fc6a 03bd
00000100: 8792 f23c 5eb5 97bc 7bbe 153b a53c b8bc
00000110: a2dc dfbb 0997 083c d796 243d 1ea9 d53c
00000120: 748c 08bd 9717 09bd 9b6e 3ebd b25c 1fbc
00000130: 159b ea3c df9a b7bb 837f 833b 7257 dfba
00000140: 7487 8ebc 2a9f 26bd b827 b23b e323 e43c
00000150: 9445 e7bb bc98 933b df8e 25bd e90c 6e3b
00000160: 0118 10bd 3fa7 a03c ccb0 c73b 245d 293d
00000170: 70f8 903c 46d0 97ba f4e7 883c 6596 f5bb
00000180: 2f5a 0cbd d960 293d f357 9ebb 4252 1fbd
00000190: d1fd 24b6 7a59 f0bc 2a67 063d c188 40bc
000001a0: 674b 3d3d 33f3 eabc 70d0 243d 55e9 25bd
000001b0: 9739 ac3c 29ee 173d d260 1b3d ee55 8c3b
000001c0: f6ca 2fbd fe3d 083d 23a1 76bc 81c9 1fbd
000001d0: d1e4 213d 8676 063d b08c 7ebc be51 27bd
000001e0: 5ffa 413c aef0 0dbd 55bb 35bd 65b9 fcbb
000001f0: 925e 9b3c c6ff 213c 2bcb 343d 8147 c6bc
00000200: 9bd3 d739 1c80 953c 1b7d 82bc 64c5 21bd
00000210: b458 6f3c 8773 bb3b 6cca 01bd 98f0 963c
00000220: 3729 15bd 9f4a 32bd be63 1e3d 3d2c 10bd
00000230: 90cb 083d 17d1 a9bc 2522 49bd c5ad e13c
00000240: 21d4 5fb9 6828 10bc 3952 7a3c b4ed 82bc
00000250: 2fc4 c83c 2cd9 5cbc 5f81 34bb ae4b cabb
00000260: 393a 163c 74cb a1bc 08af 623b 8843 14bd
00000270: 3d0f 143c 2d70 263d 9c98 36bd 59bc 1ebd
00000280: 7969 a1bb ab56 4abc 6771 263d 7d0c 103c
00000290: d18c f83c a587 293d a32a 3a3c 54bb 15bd
000002a0: ac73 67bb 4428 ec3c 2d67 9c3c 5eea 25bd
000002b0: d9b6 7e3c c8ed 073d ee04 82bb b32e dc3c
000002c0: 2b3d 6dbc 5efb f33b b476 fa3c 3f5a b2bc
000002d0: ab57 e53b a93e cdbc e15e c53c 73ca e93c
000002e0: 08a6 4ebd 77a6 34bd b0e4 153d b028 87bc
000002f0: b908 9d3c e265 443d 43bd fa3c 4e46 0b3b
00000300: 49a0 8b3c d2c9 a83c 783f 443c 712f f4bc
00000310: 3495 5c3c 3a61 3f3b e758 98ba 89fd f63c
00000320: 17e6 c6bb feb5 723a 05b7 cf3c 716e 2bbd
00000330: d6b7 e83b 8c2e 443c 46ac 8d3b 0f72 213d
00000340: 32ca b8ba 4a76 28bd 0a74 9dbc 23c3 6dbc
00000350: b441 02bd b855 4c3d 3e63 033d 53e1 44bc
00000360: 0334 93bc 43c7 e63c c98e 23bd 00f9 213c
00000370: bd6f 2d3d 0170 453d 1356 4ebd b82c 283c
00000380: 36b3 29bd 2b0b 0c3d 14c8 30ba 9830 443c
00000390: a86a 263d b70a 4cbd c3f9 57bc e2f5 ef3c
000003a0: 3a73 4ebb 9f4c 2c3d 5561 773c 27b4 c83b
000003b0: a251 d53c fa5f c7bc b622 89bc e8c6 353c
000003c0: 2178 393d 0ae4 9f3c 7344 0d3d 523e 033d
000003d0: 97e1 293b 06ac cbbb 2862 bebc d47b 13bd
000003e0: d4a0 a93c 1557 a53b 1867 54bc becc 8e3c
000003f0: 6860 513c 1d86 c33c 699b 3abd 31cb 98bc
0.00981996 0.004297978 -0.0014008173 0.037132468 -0.024525752 -0.024721907 0.041283607 -0.017633596
0.022101233 -0.020824438 0.023976613 0.0031858408 -0.03310223 -0.0040806495 -0.037772264 -0.040374637
0.012666686 -0.016956486 0.0300814 -0.014107686 -0.020724349 0.019121464 -0.021515844 0.034013186
0.005911868 -0.009723821 0.015793262 0.0175347 -0.023156833 -0.025401942 0.012566324 -0.01130777
0.020818636 0.018998964 -0.024713023 -0.009732333 0.03352861 -0.018392367 0.017745696 -0.041317813
0.002238727 -0.002827084 0.0013604895 0.04260885 0.03550833 0.024432346 0.022135561 -0.018196518
-0.044632453 0.026167598 -0.039902635 0.030496629 0.01133238 0.039872702 0.03692643 0.03502335
-0.010393708 -0.03554298 -0.04270516 0.046442747 -0.01724689 0.036623415 -0.029393561 -0.03208445
0.029610885 -0.0185191 0.002284913 -0.022489855 -0.0068317214 0.008336791 0.040182915 0.026081618
-0.03333707 -0.033469763 -0.0464922 -0.00972669 0.028638402 -0.005603179 0.0040130033 -0.001703961
-0.017398573 -0.040679134 0.0054368638 0.027849143 -0.007057855 0.0045042913 -0.040419456 0.0036323613
-0.035179142 0.019611 0.006094074 0.04134859 0.01769659 -0.0011582456 0.016712166 -0.007494735
-0.034265693 0.041352127 -0.0048322617 -0.038896807 -2.4585645e-06 -0.02933954 0.03281323 -0.011751355
0.046214487 -0.02868042 0.040237844 -0.040505726 0.021023555 0.03709236 0.037934132 0.0042827046
-0.042918168 0.033262245 -0.015053066 -0.03901053 0.039524857 0.032827877 -0.015536472 -0.04084944
0.011839478 -0.03465336 -0.044368107 -0.0077125304 0.018965993 0.009887641 0.04413907 -0.024204018
0.00041165654 0.018249564 -0.015928796 -0.039494887 0.014608551 0.005720559 -0.031687185 0.01842527
-0.03641626 -0.043528195 0.03866934 -0.03519844 0.033397257 -0.020729585 -0.04910483 0.02754868
-0.00021345961 -0.008798696 0.0152783925 -0.015982486 0.02450761 -0.013479512 -0.0027542931 -0.0061735725
0.009169155 -0.019750334 0.003458919 -0.036197215 0.009036836 0.040634323 -0.044579133 -0.03875384
-0.0049259034 -0.012349765 0.040635493 0.00879204 0.030340584 0.041389126 0.011362704 -0.036555603
-0.0035316749 0.028827794 0.019092167 -0.040506713 0.015546524 0.03318575 -0.003967873 0.026877737
-0.014479916 0.007445737 0.03057418 -0.021771548 0.006998976 -0.025054293 0.024093093 0.028538918
-0.05045131 -0.044104066 0.036595047 -0.016498893 0.019169198 0.047948726 0.030607825 0.0021251622
0.017044203 0.020604048 0.011978023 -0.029807778 0.013463307 0.0029202239 -0.0011623175 0.030150192
-0.0060699093 0.00092586863 0.025355825 -0.041853372 0.007101993 0.011973988 0.004323515 0.039415415
-0.0014098345 -0.041128434 -0.01922037 -0.014511856 -0.03180094 0.049886435 0.032077067 -0.012016612
-0.017969137 0.028171187 -0.039931092 0.009886026 0.04234289 0.04820252 -0.050375056 0.010264568
-0.041430674 0.034190338 -0.0006743681 0.011974476 0.04062906 -0.049814906 -0.013182106 0.02929205
-0.0031501786 0.04206526 0.015098889 0.0061249915 0.026039902 -0.024337757 -0.016740184 0.011094786
0.04528058 0.019517917 0.034489106 0.032041855 0.0025921816 -0.006215575 -0.023240164 -0.036006764
0.020706572 0.0050457814 -0.012964033 0.017431613 0.012779333 0.023867661 -0.045558367 -0.018651577
