outputs/ppo_synthetic_overfit/epoch-5/score_head.pt (torch, 3453 bytes, 1 tensors)

weight f4 [1, 384]
00000000: 01cf 203c f5cb 8c3b 48fe b6ba a70f 183d
00000010: aad8 c8bc 5c49 cabc 2a04 293d 7025 90bc
00000020: d2fe b43c 8195 aabc a462 c43c c980 4f3b
00000030: bfae 07bd e78b 85bb 08a8 1abd 9560 25bd
00000040: 80ea 4f3c bd75 8abc 7072 f63c 8df4 66bc
00000050: d3bd a9bc ec9a 9c3c fd3c b0bc 0553 0b3d
00000060: 7d1b c23b 2c61 1fbc 9c58 813c 17d1 8f3c
00000070: 7c90 bdbc e909 d0bc 4ed7 4d3c f1d1 38bc
00000080: f183 aa3c 88b1 9b3c 8436 cabc 1532 1fbc
00000090: 113a 093d 47c3 96bc fd56 913c c131 29bd
000000a0: 62a9 133b f07a 38bb be16 b03a c283 2e3d
000000b0: bc58 113d 5f16 c83c a95b b53c e6d9 94bc
000000c0: 67c3 36bd 8446 d63c 735f 23bd 89dd f93c
000000d0: 67ca 393c 7f47 233d d233 173d 7b6b 0f3d
000000e0: c613 2abc ec89 11bd f8eb 2ebd e014 3e3d
000000f0: 244b 8dbc 2c10 163d 95b3 f0bc ce50 03bd
00000100: 7093 f23c beaf 97bc 9fb8 133b fd34 b8bc
00000110: eb2a dfbb 07af 083c f38c 243d 0d94 d53c
00000120: eb79 08bd 2f01 09bd 975e 3ebd ec7e 1fbc
00000130: 3888 ea3c a11f b7bb 3215 833b 5419 ddba
00000140: 4a8f 8ebc 0a8d 26bd 1e1c b23b 4f19 e43c
00000150: 4639 e7bb de47 933b 8e7e 25bd a6b7 6e3b
00000160: 3b1d 10bd 3c8b a03c 16bd c83b 135e 293d
00000170: 03d4 903c 35ea 98ba 5cee 883c 712d f5bb
00000180: a263 0cbd 5f3e 293d c26d 9ebb 5c4b 1fbd
00000190: 1a02 56b7 7941 f0bc 2554 063d e678 40bc
000001a0: e44c 3d3d f93e eabc 46c7 243d f3fe 25bd
000001b0: 361e ac3c c9dc 173d 105a 1b3d 28a3 8b3b
000001c0: 5fcf 2fbd 4035 083d 018e 76bc 4dc1 1fbd
000001d0: d5d5 213d a66e 063d f356 7ebc ba42 27bd
000001e0: b89c 413c befb 0dbd 0b8b 35bd ff49 fcbb
000001f0: 8437 9b3c 673b 223c 53cc 343d f173 c6bc
00000200: 9e23 d439 9466 953c fd58 82bc a3d6 21bd
00000210: 2008 6f3c 4331 bb3b 97c9 01bd 4ff6 963c
00000220: 0f20 15bd 1263 32bd f963 1e3d ce1f 10bd
00000230: 91c9 083d ad9e a9bc 3209 49bd 3e94 e13c
00000240: 9888 4cb9 6c5a 10bc a0c4 793c 2bbc 82bc
00000250: 60ac c83c 3eda 5cbc c17b 34bb a8c6 c8bb
00000260: dcee 153c 92b6 a1bc 8b1e 643b 5a49 14bd
00000270: 4962 143c 7a6a 263d bc96 36bd a1a2 1ebd
00000280: 1f7f a1bb a6fb 49bc 8a51 263d 934c 0f3c
00000290: 4f74 f83c 9983 293d 4e61 3a3c 2dbb 15bd
000002a0: 4b00 68bb b914 ec3c 565e 9c3c 2ad8 25bd
000002b0: 27c1 7e3c 70f0 073d 6b3e 82bb 4824 dc3c
000002c0: c70b 6dbc ab76 f33b 74c2 fa3c 7459 b2bc
000002d0: 5c71 e53b 7a0c cdbc f654 c53c f4b0 e93c
000002e0: d3a1 4ebd 1baa 34bd 11de 153d 4e55 87bc
000002f0: 69e2 9c3c 3357 443d a9d3 fa3c bdb2 0a3b
00000300: 78b6 8b3c 6ace a83c 2726 443c d514 f4bc
00000310: 6da1 5c3c 5abb 3f3b 6b55 99ba 8d0e f73c
00000320: ce37 c6bb 25d4 773a 6fb4 cf3c 5252 2bbd
00000330: f17b e93b 9b2e 443c 1ced 8d3b 2766 213d
00000340: a278 b8ba dc6f 28bd 4d59 9dbc 672c 6ebc
00000350: e339 02bd d24f 4c3d a74c 033d 81a1 44bc
00000360: 6037 93bc 23d6 e63c 1e3a 23bd 90db 213c
00000370: 6764 2d3d 3780 453d d64e 4ebd cf0c 273c
00000380: f05b 29bd 5208 0c3d 8f8d 37ba 55ca 433c
00000390: b878 263d cbf7 4bbd d6c4 57bc 75ee ef3c
000003a0: 6691 4dbb bd4d 2c3d 58f3 763c 7d61 c83b
000003b0: d25c d53c d74e c7bc 3818 89bc f631 363c
000003c0: b457 393d dcdc 9f3c 0346 0d3d 353e 033d
000003d0: 719f 293b b4bf cbbb d8eb bdbc 3d75 13bd
000003e0: 8188 a93c 25f9 a33b 7bb8 54bc 89c7 8e3c
000003f0: cf48 513c 9f7e c33c 3a8f 3abd 7ef3 98bc
0.009814979 0.0042967745 -0.001396128 0.037124302 -0.024517376 -0.024693184 0.041263737 -0.017595977
0.022094164 -0.020823242 0.023972817 0.0031662455 -0.033125635 -0.0040755155 -0.037757903 -0.04037531
0.0126901865 -0.016901845 0.030083865 -0.014096391 -0.020720398 0.019116841 -0.021513456 0.03401472
0.005923687 -0.009727757 0.015789323 0.017555756 -0.023140185 -0.02539535 0.01256354 -0.011280523
0.020814868 0.019005552 -0.024684198 -0.00971653 0.033502642 -0.018403662 0.017741675 -0.041307215
0.002253138 -0.0028149448 0.0013434512 0.042606123 0.035485014 0.02442473 0.022138434 -0.018170308
-0.044619944 0.026156671 -0.03988595 0.030501144 0.01133976 0.039863106 0.036914654 0.03501461
-0.010380691 -0.035531923 -0.042705506 0.046406627 -0.017247744 0.036636516 -0.029382506 -0.032059483
0.02961132 -0.018516418 0.0022540463 -0.022486204 -0.006810536 0.008342511 0.040173482 0.026071573
-0.033319395 -0.033448394 -0.046476927 -0.00973485 0.028629407 -0.0055884873 0.0040003294 -0.001686851
-0.01740231 -0.04066185 0.0054354807 0.0278441 -0.007056388 0.004494651 -0.040403895 0.003642538
-0.035184126 0.019597642 0.0061260564 0.04134948 0.01767922 -0.0011666479 0.016715221 -0.0074822237
-0.034274705 0.041319247 -0.0048348615 -0.038890228 -1.2755883e-05 -0.029328095 0.03279509 -0.011747574
0.046215907 -0.02859448 0.040229104 -0.04052634 0.0210105 0.03707579 0.037927687 0.004261393
-0.042922374 0.03325391 -0.015048505 -0.039002705 0.039510567 0.032820366 -0.01552366 -0.04083512
0.01181715 -0.03466391 -0.044322055 -0.0076992507 0.01894737 0.009901858 0.04414017 -0.024225207
0.00040462328 0.01823739 -0.015911574 -0.039511334 0.0145893395 0.0057126596 -0.03168639 0.018427996
-0.036407527 -0.043551512 0.03866956 -0.03518658 0.033395354 -0.020705545 -0.049081035 0.027536508
-0.00019505841 -0.008810621 0.015244633 -0.015958866 0.024496257 -0.013479767 -0.0027539583 -0.0061271973
0.009151187 -0.019740377 0.0034808244 -0.036202766 0.009056636 0.040628888 -0.044577345 -0.038729314
-0.004928484 -0.012328064 0.040605105 0.008746284 0.030328898 0.041385267 0.011375738 -0.036555458
-0.0035400565 0.028818475 0.019087952 -0.040489353 0.015548981 0.033188283 -0.003974726 0.026872769
-0.01446814 0.007429918 0.0306103 -0.02177117 0.007002039 -0.025030363 0.024088364 0.02852676
-0.050447296 -0.044107538 0.036588732 -0.016520169 0.01915093 0.047934722 0.030618506 0.0021163665
0.017054781 0.020606238 0.011971987 -0.02979509 0.013466221 0.0029255957 -0.001169843 0.030158306
-0.006049133 0.0009453914 0.025354592 -0.041826554 0.0071253707 0.011974002 0.004331244 0.03940406
-0.0014074037 -0.041122302 -0.019207621 -0.0145369535 -0.031793486 0.04988081 0.032055523 -0.012001396
-0.01797074 0.02817828 -0.039850347 0.009879008 0.04233208 0.04821798 -0.050368153 0.010195925
-0.041347444 0.034187622 -0.000700199 0.011950095 0.04064247 -0.04979686 -0.013169488 0.02928851
-0.0031367182 0.042066325 0.015072666 0.006115137 0.026045237 -0.024329586 -0.016735181 0.01112031
0.045249656 0.019514494 0.034490597 0.032041747 0.0025882388 -0.006217921 -0.023183748 -0.03600048
0.020694973 0.0050040656 -0.012983437 0.01742913 0.012773707 0.023864089 -0.045546748 -0.018670794
