outputs/ppo_synthetic/epoch-2/score_head.pt (torch, 3453 bytes, 1 tensors)

weight f4 [1, 384]
000000 ba ab 32 3c 00 f4 a2 3b 8d 36 f3 ba 6b ff 1a 3d
       0.010905201 0.0049729347 -0.0018555686 0.03784124
000010 a5 ce cf bc 76 1e c9 bc f4 64 2d 3d 1e ff 9a bc
       -0.02536709 -0.024550658 0.042332605 -0.018920477
000020 6a 9d bc 3c ca 6c b2 bc 49 1e bd 3c 23 95 76 3b
       0.02302428 -0.02178039 0.02308573 0.0037625514
000030 72 e2 02 bd d2 ee b2 bb ea 67 20 bd b1 4a 2a bd
       -0.031954236 -0.0054605985 -0.0391616 -0.041575138
000040 88 82 63 3c b1 8c 8e bc e6 4c fe 3c 47 b0 6b bc
       0.013886102 -0.017401071 0.031042527 -0.0143852895
000050 1c d9 af bc f6 50 a3 3c 0c 97 b6 bc fe 59 0f 3d
       -0.02146583 0.019936066 -0.022288822 0.034997933
000060 12 1e da 3b 6b 4d 07 bc 26 99 8f 3c 2f 59 99 3c
       0.0066564167 -0.008258204 0.017529082 0.018719284
000070 dd 18 c5 bc 78 67 bf bc e5 9d 62 3c d0 6a 4a bc
       -0.024059707 -0.023364767 0.01383159 -0.012354568
000080 76 43 b5 3c ef c5 aa 3c 15 fe c9 bc 83 ea 38 bc
       0.022126894 0.020846335 -0.024657289 -0.011286381
000090 bc 1e 0c 3d 23 cc 92 bc f1 48 9a 3c c5 5d 2d bd
       0.034208998 -0.017919606 0.01883361 -0.042325754
0000a0 eb 48 c1 3a 6d 55 26 bb 84 13 2b 3b f7 c3 33 3d
       0.0014746463 -0.0025380508 0.0026104162 0.04388806
0000b0 49 db 16 3d 4b ea d3 3c fe 06 bf 3c 58 89 9d bc
       0.03683022 0.025868556 0.023318764 -0.01923053
0000c0 5b bf 3b bd fa 4b de 3c 71 81 25 bd d7 68 01 3d
       -0.045836788 0.027135838 -0.040406648 0.031594124
0000d0 27 e8 4f 3c 84 cc 27 3d c5 96 1b 3d 4d 6d 13 3d
       0.012689627 0.040966526 0.037985582 0.03599291
0000e0 24 fb 32 bc e3 f1 14 bd 21 a4 34 bd 22 77 42 3d
       -0.010924134 -0.036363494 -0.044101838 0.047476895
0000f0 a0 4f 95 bc 74 f5 13 3d fd d7 f1 bc 8f 2a 08 bd
       -0.018226445 0.036122754 -0.029521937 -0.033243712
000100 af e4 f0 3c 62 b3 9d bc fb 3d 55 3b 3f 02 b9 bc
       0.02940592 -0.019250575 0.0032538164 -0.022584079
000110 d6 cb 00 bc 1b c2 0b 3c b3 e8 29 3d 98 aa dc 3c
       -0.007861098 0.008530165 0.041481685 0.026936814
000120 dd 2f 0b bd a8 27 0d bd 46 c8 40 bd bd ab 08 bc
       -0.033981193 -0.034461647 -0.047065996 -0.008341727
000130 2d 95 f2 3c a4 30 d0 bb 8c 13 43 3b fe 54 c7 ba
       0.029612148 -0.0063534547 0.002976629 -0.0015207825
000140 71 f1 98 bc 83 f0 29 bd a8 a8 bb 3b e9 ed dd 3c
       -0.018669816 -0.041489135 0.0057268925 0.027090983
000150 b5 15 0b bc 9c c1 8e 3b ff 3a 28 bd 18 0c 57 3b
       -0.008489062 0.004356576 -0.041071888 0.0032813605
000160 cc df 15 bd bf 2a b2 3c 74 86 d0 3b 45 3d 2e 3d
       -0.036590382 0.021748899 0.0063636843 0.0425389
000170 f5 a4 90 3c 0d 1d 3d bb 9e 51 90 3c 0b 0b 02 bc
       0.017656783 -0.0028856427 0.017617043 -0.007937203
000180 f8 ca 14 bd 7b bc 2c 3d d5 87 51 bb fe 29 24 bd
       -0.03632638 0.042171936 -0.0031971831 -0.04007911
000190 c4 35 51 3a ec e1 f3 bc a6 cc 05 3d ff 4e 38 bc
       0.0007980729 -0.029770814 0.03266587 -0.011249303
0001a0 f2 3e 42 3d 64 49 f0 bc c6 5a 29 3d d9 30 28 bd
       0.04742331 -0.02933187 0.041346334 -0.04106221
0001b0 61 8c a1 3c 4b 55 21 3d ae 2e 21 3d 35 0c c5 3b
       0.019720258 0.039387982 0.039351158 0.006013418
0001c0 90 d9 34 bd 65 0a 11 3d 8c 50 84 bc 29 ed 24 bd
       -0.044152796 0.035410304 -0.016151689 -0.040265236
0001d0 4d 01 1e 3d 84 11 0a 3d 17 3e 8a bc d9 67 2b bd
       0.03857546 0.03370811 -0.01687531 -0.041847084
0001e0 9f 2b 37 3c 67 e5 0f bd e3 cc 39 bd d6 b1 15 bc
       0.011179834 -0.035130884 -0.04536141 -0.009136638
0001f0 c7 bb a0 3c 5c a0 32 3c a9 a1 3a 3d bf 94 be bc
       0.01962079 0.0109024905 0.045564327 -0.023264287
000200 88 ea 07 ba 1f d9 8d 3c 44 8a 88 bc 7e f2 26 bd
       -0.0005184789 0.017315445 -0.016667493 -0.040758602
000210 8c 3c 62 3c 77 7c fb 3b db 28 02 bd 63 2b a0 3c
       0.013808381 0.0076747495 -0.031777244 0.019551938
000220 c9 8e 15 bd 07 cf 33 bd 90 86 1d 3d af 47 14 bd
       -0.036513124 -0.04389861 0.038458407 -0.036201175
000230 1c 70 0c 3d da c0 b0 bc 24 c2 4c bd b8 e2 ea 3c
       0.034286603 -0.021576334 -0.049989834 0.028672561
000240 6a eb 32 ba a4 60 2e bc f2 7a 6d 3c ef 65 8b bc
       -0.00068252406 -0.010643158 0.0144946445 -0.01701638
000250 4d a3 d0 3c 10 62 4a bc ac a1 1a bb df d8 f3 bb
       0.025468493 -0.0123524815 -0.00235949 -0.0074416245
000260 0f be 1a 3c c5 09 ac bc 1c 2a 52 3b c7 30 17 bd
       0.009444728 -0.021000752 0.0032068556 -0.036911752
000270 ee b0 01 3c f8 21 2d 3d 60 19 3d bd de 2b 22 bd
       0.0079157185 0.042268723 -0.046166778 -0.039592616
000280 eb 67 76 bb b3 fd 5e bc 05 e6 2a 3d e9 9d 03 3c
       -0.003759856 -0.013610291 0.04172327 0.008033254
000290 66 4f 05 3d 7f 76 30 3d ba e8 27 3c df d4 1a bd
       0.032546423 0.043081757 0.010248357 -0.037800666
0002a0 67 90 8c bb 0a a0 ee 3c 67 68 a4 3c ac c2 2a bd
       -0.004289675 0.029129047 0.020069314 -0.04168956
0002b0 4c 73 6e 3c 34 4c 0c 3d da a7 af bb 0a f3 e4 3c
       0.014553856 0.03425236 -0.0053605856 0.027947921
0002c0 2b 85 7f bc 79 79 14 3c 5b eb 00 3d 63 df bc bc
       -0.015595715 0.009062164 0.031474452 -0.023055738
0002d0 5e f5 0b 3c 25 a7 d0 bc c2 02 ca 3c a4 91 f9 3c
       0.008542387 -0.025470326 0.024659518 0.030464955
0002e0 72 8e 4f bd 82 93 3a bd 86 32 18 3d 66 cc 82 bc
       -0.050672956 -0.04555083 0.037157558 -0.015966605
0002f0 29 44 a0 3c d6 4c 49 3d 70 20 02 3d 5e 55 75 3a
       0.019563751 0.049145542 0.031769216 0.0009358729
000300 f9 0e 93 3c e3 a8 b0 3c 8d c7 5d 3c 9b 86 f9 bc
       0.017951475 0.021564906 0.013536346 -0.030459693
000310 b9 53 6b 3c 19 e4 5f 3b e4 ae a6 ba 65 95 fb 3c
       0.014363223 0.0034163056 -0.0012716916 0.030710885
000320 ae 1b d1 bb fe ef de b8 9a 9b d6 3c b8 1e 2b bd
       -0.0063814735 -0.00010630487 0.026197243 -0.041777343
000330 0b de f5 3b 23 fc 5b 3c bf 6b a1 3b 6f ad 24 3d
       0.007503276 0.013426813 0.0049261744 0.04020446
000340 01 79 ca ba 9c bc 2c bd dd 76 a7 bc 77 51 7e bc
       -0.0015447439 -0.04217206 -0.02044242 -0.015522352
000350 c2 e1 03 bd d4 32 51 3d eb f1 03 3d 58 ce 41 bc
       -0.03219772 0.051073864 0.032213133 -0.011828981
000360 7a 15 9b bc 4c 6b f2 3c 58 35 2a bd d8 61 1c 3c
       -0.01893114 0.029592179 -0.04155478 0.009544812
000370 d3 f3 31 3d 14 ae 47 3d 7c 41 51 bd ff f8 1d 3c
       0.04344542 0.04875 -0.05108784 0.009641885
000380 ad 52 23 bd f1 17 0f 3d 0f e0 9d 38 dc 54 43 3c
       -0.039873768 0.03493494 7.5280775e-05 0.0119220875
000390 75 7b 2a 3d b4 0f 4f bd 11 5e 6c bc 89 82 f8 3c
       0.041621644 -0.050552085 -0.014426724 0.030335682
0003a0 f3 38 ab bb 01 fb 30 3d 76 6b 84 3c 83 02 d9 3b
       -0.0052252947 0.043208126 0.016164523 0.006622614
0003b0 21 48 dd 3c 00 fa d1 bc 41 29 95 bc eb 26 27 3c
       0.027011933 -0.025631905 -0.018208148 0.01020215
0003c0 5e 3d 3d 3d 4d 64 a6 3c 83 15 09 3d 22 79 fe 3c
       0.046201102 0.020311499 0.03346778 0.03106362
0003d0 60 f8 85 3b 52 49 f2 bb 31 45 b8 bc 8c be 17 bd
       0.0040884465 -0.0073939944 -0.02249393 -0.037046954
0003e0 68 0d ad 3c 57 b7 87 3b e4 26 57 bc e7 7e 9b 3c
       0.021124557 0.004141729 -0.013131831 0.01898141
0003f0 05 7a 69 3c 36 45 d1 3c 2a aa 3d bd e5 c5 8b bc
       0.014250283 0.025545698 -0.04630486 -0.017062137
