outputs/ppo_synthetic/epoch-3/score_head.pt (torch, 3453 bytes, 1 tensors)

weight f4 [1, 384]
0.010864057 0.0048756003 -0.00178718 0.037774622 -0.025307942 -0.024544446 0.04227128 -0.018972222
0.022956451 -0.021680681 0.02320462 0.0037231366 -0.032071397 -0.0054047676 -0.039071593 -0.04148913
0.013845431 -0.017357133 0.030964626 -0.014384628 -0.021424104 0.019849746 -0.022237394 0.034911208
0.0065498617 -0.00836949 0.017447041 0.018634215 -0.023954382 -0.023455985 0.013725218 -0.012445489
0.022038171 0.020857742 -0.024551198 -0.011198745 0.034161244 -0.01803435 0.018731538 -0.04222452
0.001527461 -0.0025959294 0.002524325 0.043809585 0.036767997 0.02577162 0.023229156 -0.019226324
-0.045744266 0.027089268 -0.040457085 0.031511024 0.012628083 0.040871102 0.03795328 0.035933606
-0.011034494 -0.036305003 -0.04401588 0.047455344 -0.018133407 0.03619533 -0.029485213 -0.03323508
0.029499533 -0.019182703 0.0032273356 -0.022542547 -0.007777728 0.008526487 0.04139171 0.02683256
-0.033897076 -0.03440779 -0.046984173 -0.008446243 0.029531706 -0.0062724347 0.00309603 -0.0016205098
-0.01858075 -0.04143457 0.005705595 0.0271092 -0.008433099 0.0044421623 -0.04097226 0.0033764842
-0.03649227 0.021702077 0.0062799472 0.042463265 0.017679444 -0.0027693445 0.017541796 -0.007852104
-0.036251314 0.04220814 -0.0033126608 -0.039986487 0.00068429706 -0.029873371 0.032678552 -0.011369234
0.047344532 -0.02928465 0.041264627 -0.0410033 0.0198197 0.039342213 0.039252374 0.0060683084
-0.044087246 0.03541862 -0.016048336 -0.04018674 0.03853812 0.033617932 -0.016792094 -0.041774698
0.011298766 -0.035079215 -0.045442507 -0.009054732 0.019641314 0.010799384 0.045480214 -0.023289826
-0.0004097653 0.017322585 -0.01677995 -0.040679783 0.013874492 0.0076810997 -0.03182241 0.019442588
-0.03650489 -0.043868948 0.038385104 -0.036100257 0.03418437 -0.021487366 -0.049899373 0.028584836
-0.00067053275 -0.010557287 0.014475857 -0.016943922 0.025453662 -0.01247711 -0.0024915528 -0.0073701357
0.009407081 -0.020951543 0.0032218634 -0.036840774 0.007990294 0.04223984 -0.0461078 -0.039527
-0.0038578983 -0.013653104 0.04165823 0.007973897 0.032463975 0.04301104 0.010172702 -0.037700735
-0.004363426 0.029051887 0.020016856 -0.041620806 0.014706088 0.034218032 -0.005255197 0.027865889
-0.01551587 0.008955636 0.031438634 -0.022975938 0.00845435 -0.025428824 0.02462097 0.03038652
-0.05075959 -0.045458343 0.03707651 -0.016007809 0.019550692 0.04908882 0.031699914 0.0010642252
0.017868219 0.021519987 0.013437807 -0.030420437 0.014287905 0.0033337353 -0.0012021993 0.03062539
-0.006358324 -2.497224e-05 0.026098585 -0.041784618 0.007544629 0.013358848 0.004836181 0.040118665
-0.0014530901 -0.04207529 -0.020376503 -0.015462054 -0.032124467 0.051003117 0.032319114 -0.011815112
-0.01885526 0.029515637 -0.041649852 0.009458484 0.04335705 0.04871718 -0.051051404 0.009729304
-0.039893746 0.03493782 -2.9807957e-06 0.012068612 0.04154652 -0.05049695 -0.014331556 0.030241165
-0.0051280605 0.043136727 0.016090391 0.006495625 0.026934078 -0.025539882 -0.01817749 0.010209414
0.046115946 0.020226264 0.033548884 0.031204075 0.0040039686 -0.007299158 -0.022652052 -0.03693434
0.021030061 0.004164854 -0.013188325 0.01890593 0.014143463 0.025451766 -0.046229474 -0.017067507
00000000: 28ff 313c 80c3 9f3b cf3f eaba 90b9 1a3d
00000010: 9a52 cfbc 6f11 c9bc a624 2d3d a26b 9bbc
00000020: 2b0f bc3c af9b b1bc 9e17 be3c deff 733b
00000030: 4c5d 03bd 7a1a b1bb 8909 20bd 82f0 29bd
00000040: f2d7 623c 8c30 8ebc 87a9 fd3c 81ad 6bbc
00000050: 9a81 afbc ef9b a23c 322b b6bc 0eff 0e3d
00000060: 39a0 d63b 2f20 09bc 19ed 8e3c c8a6 983c
00000070: fb3b c4bc c426 c0bc bddf 603c 2ae8 4bbc
00000080: 6589 b43c dbdd aa3c 981f c9bc f17a 37bc
00000090: a9ec 0b3d c6bc 93bc e272 993c 9ef3 2cbd
000000a0: 1635 c83a 7820 2abb 256f 253b ae71 333d
000000b0: 0a9a 163d 011f d33c 124b be3c 8680 9dbc
000000c0: 575e 3bbd 50ea dd3c 54b6 25bd b411 013d
000000d0: 05e6 4e3c 7568 273d e674 1b3d 1e2f 133d
000000e0: 06ca 34bc 8eb4 14bd ff49 34bd 8960 423d
000000f0: 838c 94bc 8e41 143d f98a f1bc 8221 08bd
00000100: 01a9 f13c 0b25 9dbc b581 533b 26ab b8bc
00000110: 50dc febb aeb2 0b3c 5b8a 293d f5cf db3c
00000120: a9d7 0abd 2fef 0cbd 7a72 40bd 1c62 0abc
00000130: 7aec f13c ff88 cdbb c4e6 4a3b 4967 d4ba
00000140: a836 98bc 4cb7 29bd 00f6 ba3b 1d14 de3c
00000150: fb2a 0abc 8f8f 913b 87d2 27bd 0148 5d3b
00000160: eb78 15bd 8ec8 b13c 04c8 cd3b f6ed 2d3d
00000170: 7bd4 903c e47d 35bb d0b3 8f3c 1ca6 00bc
00000180: 427c 14bd 71e2 2c3d 3a19 59bb dfc8 23bd
00000190: 6662 333a 00b9 f4bc f2d9 053d 0646 3abc
000001a0: 57ec 413d 5de6 efbc 1905 293d 14f3 27bd
000001b0: ec5c a23c 4d25 213d 19c7 203d a9d8 c63b
000001c0: d494 34bd 1d13 113d cd77 83bc da9a 24bd
000001d0: 26da 1d3d f5b2 093d 938f 89bc f21b 2bbd
000001e0: 761e 393c 39af 0fbd ec21 3abd 4c5a 14bc
000001f0: d2e6 a03c e6ef 303c 7649 3a3d 4eca bebc
00000200: c5d5 d6b9 18e8 8d3c 1b76 89bc d89f 26bd
00000210: d651 633c bcb1 fb3b 3758 02bd 1046 9f3c
00000220: 2786 15bd edaf 33bd b339 1d3d dddd 13bd
00000230: e904 0c3d 4606 b0bc 4963 4cbd bf2a ea3c
00000240: b1c6 2fba 79f8 2cbc 252c 6d3c fbcd 8abc
00000250: 3384 d03c cb6c 4cbc 5249 23bb 2e81 f1bb
00000260: 2820 1a3c 92a2 abbc e625 533b 5ae6 16bd
00000270: b9e9 023c af03 2d3d 88db 3cbd 10e7 21bd
00000280: cbd4 7cbb 45b1 5fbc d2a1 2a3d f3a4 023c
00000290: f2f8 043d 582c 303d 68ab 263c 166c 1abd
000002a0: 12fb 8ebb 39fe ed3c 64fa a33c 947a 2abd
000002b0: cef1 703c 3528 0c3d ca33 acbb 0147 e43c
000002c0: 4736 7ebc a9ba 123c ccc5 003d 0938 bcbc
000002d0: 1d84 0a3c 1c50 d0bc ebb1 c93c 27ed f83c
000002e0: 4ae9 4fbd 8732 3abd 8add 173d cf22 83bc
000002f0: c628 a03c 5c11 493d c5d7 013d 797d 8b3a
00000300: 5f60 923c af4a b03c 3f2a 5c3c 4834 f9bc
00000310: d117 6a3c cc7a 5a3b 1d93 9dba 19e2 fa3c
00000320: 7d59 d0bb 7a7b d1b7 b3cc d53c 5926 2bbd
00000330: ef38 f73b 12df 5a3c d478 9e3b 7853 243d
00000340: 9d75 beba 2457 2cbd a0ec a6bc 8e54 7dbc
00000350: f294 03bd a5e8 503d 0c61 043d 2c94 41bc
00000360: 5976 9abc c7ca f13c 0999 2abd c2f7 1a3c
00000370: 2997 313d aa8b 473d 471b 51bd a967 1f3c
00000380: a067 23bd f61a 0f3d ae09 48b6 6dbb 453c
00000390: af2c 2a3d e4d5 4ebd e7ce 6abc 52bc f73c
000003a0: 4a09 a8bb 23b0 303d ffcf 833c 40d9 d43b
000003b0: dba4 dc3c 0439 d1bc f6e8 94bc 6345 273c
000003c0: 13e4 3c3d 8db1 a53c 8e6a 093d b09f ff3c
000003d0: b933 833b c62d efbb cc90 b9bc 7648 17bd
000003e0: 3c47 ac3c 5479 883b d813 58bc 9ce0 9a3c
000003f0: fcb9 673c 3980 d03c 1e5b 3dbd 28d1 8bbc
