outputs/ppo_synthetic_overfit/epoch-7/score_head.pt (torch, 3453 bytes, 1 tensors)

weight f4 [1, 384]
00000000: f8c2 203c 7ab8 8c3b eb9b b7ba b10c 183d
00000010: 40cb c8bc 1535 cabc 9ff5 283d dd00 90bc
00000020: def6 b43c 0693 aabc 495b c43c f329 4f3b
00000030: bdbb 07bd 7262 85bb 369e 1abd cd63 25bd
00000040: 9e29 503c e427 8abc a07d f63c 73a2 66bc
00000050: aabb a9bc 3894 9c3c f428 b0bc b853 0b3d
00000060: 272f c23b a74e 1fbc 775c 813c 4cea 8f3c
00000070: 8175 bdbc 75f2 cfbc fee2 4d3c 4077 38bc
00000080: 987c aa3c 6dc1 9b3c 9703 cabc 78fe 1ebc
00000090: ee2c 093d c9cc 96bc 0d53 913c 9f2d 29bd
000000a0: 1ef9 143b 1135 38bb e01b af3a 3c86 2e3d
000000b0: ee4b 113d 590f c83c d661 b53c e3a9 94bc
000000c0: 10bf 36bd 9536 d63c a050 23bd 60e8 f93c
000000d0: 61d4 393c 0343 233d 4c27 173d ec68 0f3d
000000e0: ef09 2abc 827c 11bd 71ea 2ebd 18ff 3d3d
000000f0: b949 8dbc e327 163d 749a f0bc e839 03bd
00000100: 7b82 f23c 3da8 97bc 27bb 123b fd30 b8bc
00000110: 689d debb 38d8 083c 7f85 243d 2d8d d53c
00000120: d06e 08bd d8f3 08bd 6154 3ebd d3a2 1fbc
00000130: e27f ea3c 8c13 b7bb ecfb 823b 76be dbba
00000140: 5a90 8ebc cf87 26bd 5499 b23b a41e e43c
00000150: 360d e7bb 795f 933b b073 25bd 66ea 6e3b
00000160: a31f 10bd 3b85 a03c 60b3 c93b 865d 293d
00000170: 36b5 903c b8c4 99ba 5315 893c 6ce5 f4bb
00000180: 2468 0cbd b52a 293d a178 9ebb ca40 1fbd
00000190: 59af 9cb7 203e f0bc 3f4d 063d c975 40bc
000001a0: a94f 3d3d f2cc e9bc 34c8 243d 430d 26bd
000001b0: d709 ac3c 12d7 173d 2b56 1b3d 4234 8b3b
000001c0: 65cd 2fbd 4a35 083d 307e 76bc 18bc 1fbd
000001d0: bec1 213d 986f 063d 2030 7ebc 5036 27bd
000001e0: a479 413c a404 0ebd 5264 35bd 4e02 fcbb
000001f0: c129 9b3c 7565 223c 94cb 343d 5fa8 c6bc
00000200: c2a0 d139 de6b 953c 3149 82bc 6de0 21bd
00000210: 7df7 6e3c 3b39 bb3b 6fbd 01bd d4fa 963c
00000220: a221 15bd ce64 32bd cb6a 1e3d 3c18 10bd
00000230: aeca 083d c390 a9bc b1f9 48bd 0d87 e13c
00000240: b9c0 46b9 1d76 10bc fc49 793c a5a2 82bc
00000250: 57a9 c83c 7cd5 5cbc fdf2 33bb e9d1 c7bb
00000260: 32fa 153c 64b0 a1bc 3ee8 643b 684b 14bd
00000270: 92db 143c 3d6a 263d 5095 36bd 358f 1ebd
00000280: aa9b a1bb 6bcc 49bc 5140 263d 89f2 0e3c
00000290: 186d f83c 6181 293d b788 3a3c 6bbf 15bd
000002a0: 51da 68bb ad09 ec3c 805a 9c3c 09cf 25bd
000002b0: d3ba 7e3c 3ffc 073d 7767 82bb bb13 dc3c
000002c0: 80e9 6cbc 7323 f33b 91f8 fa3c b555 b2bc
000002d0: d826 e53b a8f6 ccbc 124d c53c 96a5 e93c
000002e0: 649e 4ebd 75ab 34bd 76dc 153d 5778 87bc
000002f0: 1dd0 9c3c b152 443d 38e2 fa3c 3d8c 0a3b
00000300: 8bc2 8b3c d0d4 a83c ab15 443c d207 f4bc
00000310: a9af 5c3c 01de 3f3b af40 9aba 9b17 f73c
00000320: 85ae c5bb bce5 7b3a 91ba cf3c 113d 2bbd
00000330: 0d56 ea3b ee41 443c 9222 8e3b f85e 213d
00000340: 16f9 b7ba 776c 28bd af3d 9dbc e23c 6ebc
00000350: 1932 02bd 614b 4c3d 7929 033d 2673 44bc
00000360: b232 93bc 8fe1 e63c c4f7 22bd 63c0 213c
00000370: 1d5b 2d3d ad87 453d 0250 4ebd fbfe 253c
00000380: 3225 29bd fa0a 0c3d f63a 37ba e4cf 433c
00000390: 3f85 263d cbee 4bbd a0b3 57bc 12ec ef3c
000003a0: 8be5 4cbb 9146 2c3d 8bb1 763c 353d c83b
000003b0: df60 d53c da4b c7bc 6a18 89bc 5c70 363c
000003c0: 8141 393d b9dd 9f3c 2542 0d3d 3b43 033d
000003d0: 4774 293b 67c0 cbbb 9ea1 bdbc 2b71 13bd
000003e0: 6179 a93c d82f a33b bebe 54bc 03c5 8e3c
000003f0: 4838 513c b67d c33c a784 3abd a01a 99bc
0.009812109 0.0042944523 -0.0014008259 0.03712148 -0.02451098 -0.024683515 0.041249868 -0.017578537
0.022090372 -0.02082206 0.02396931 0.0031610697 -0.033138026 -0.0040705735 -0.037748538 -0.04037838
0.012705235 -0.016864724 0.0300892 -0.014076817 -0.020719368 0.019113645 -0.021503903 0.034015387
0.005926031 -0.009723342 0.015791161 0.017567776 -0.02312732 -0.025384167 0.012566326 -0.0112589
0.020811364 0.019013131 -0.024659915 -0.009704225 0.033490114 -0.018408196 0.017739797 -0.041303273
0.0022731493 -0.0028107802 0.0013359748 0.042608485 0.035472803 0.02442138 0.022141378 -0.018147415
-0.044615805 0.026149074 -0.039871812 0.030506313 0.011342139 0.03985883 0.03690271 0.03501217
-0.010378345 -0.03551913 -0.04270405 0.046385854 -0.017247068 0.036659133 -0.029370524 -0.032037646
0.029603234 -0.01851284 0.0022389384 -0.022484297 -0.0067936666 0.008352332 0.040166374 0.026068294
-0.033308804 -0.033435673 -0.04646719 -0.00974341 0.028625432 -0.005587047 0.0039973166 -0.0016765136
-0.017402817 -0.04065686 0.005450407 0.027846642 -0.0070511354 0.004497465 -0.04039353 0.003645563
-0.03518642 0.01959478 0.0061554164 0.041348957 0.017664533 -0.00117316 0.016733801 -0.0074736383
-0.034279004 0.041300494 -0.0048361574 -0.038880147 -1.8678302e-05 -0.029326499 0.03278851 -0.011746832
0.046218548 -0.028540108 0.04022999 -0.04053999 0.021000786 0.03707034 0.037923973 0.004248173
-0.04292049 0.033253945 -0.015044734 -0.03899774 0.039491408 0.032821268 -0.015514404 -0.04082328
0.011808787 -0.034672394 -0.044285126 -0.0076907044 0.018940808 0.009911885 0.04413946 -0.024250207
0.0003998336 0.018239912 -0.015904041 -0.03952067 0.014585373 0.0057136095 -0.0316748 0.018430151
-0.036409028 -0.043553166 0.038676064 -0.03517936 0.033396415 -0.02069891 -0.04906625 0.027530218
-0.00018954546 -0.008817223 0.015215393 -0.015946696 0.02449481 -0.013478633 -0.0027458065 -0.0060980213
0.0091538895 -0.01973743 0.0034928466 -0.036204726 0.009085553 0.04062866 -0.04457599 -0.03871079
-0.0049318867 -0.012316803 0.04058868 0.008724817 0.030325457 0.04138315 0.011385134 -0.036559504
-0.0035530517 0.028813208 0.019086123 -0.040480647 0.015547472 0.033199545 -0.003979619 0.026864877
-0.014459968 0.0074199974 0.030636104 -0.021769384 0.006993156 -0.025019959 0.024084602 0.02852134
-0.05044402 -0.044108827 0.0365872 -0.016536875 0.019142205 0.047930423 0.030625448 0.0021140717
0.017060539 0.02060929 0.011968057 -0.029788885 0.013469615 0.0029276612 -0.0011768545 0.030162623
-0.0060327672 0.0009609123 0.025357516 -0.041806284 0.0071513713 0.0119786095 0.004337617 0.03939721
-0.0014036025 -0.041119065 -0.019194452 -0.014540883 -0.031786058 0.049876574 0.032021973 -0.011990344
-0.01796851 0.028183727 -0.03978707 0.009872529 0.04232322 0.048225094 -0.05036927 0.010131593
-0.041295238 0.034190156 -0.0006989682 0.01195142 0.040654417 -0.049788278 -0.0131653845 0.029287372
-0.0031264748 0.042059485 0.015056978 0.006110812 0.026047168 -0.024328161 -0.016735274 0.011135187
0.045228485 0.019514905 0.03448691 0.032046538 0.002585666 -0.0062180045 -0.023148354 -0.035996597
0.02068776 0.0049800687 -0.01298493 0.017427927 0.012769766 0.023863655 -0.045536663 -0.018689454
