outputs/ppo_synthetic_v2/final/score_head.pt (torch, 3453 bytes, 1 tensors)

weight f4 [1, 384]
0.0111263 0.0052759205 -0.0021436631 0.03812006 -0.025664777 -0.024777468 0.04261372 -0.019072698
0.023320355 -0.022095213 0.02277798 0.0038590757 -0.03163567 -0.0057772333 -0.03951847 -0.041874096
0.014148627 -0.017698297 0.031347327 -0.014541905 -0.021708857 0.02023693 -0.02261584 0.035320815
0.0069683134 -0.008018407 0.017894387 0.019058432 -0.024348242 -0.023094844 0.014177539 -0.012221122
0.02245487 0.021149246 -0.02497196 -0.011610854 0.034541167 -0.017668517 0.01914817 -0.042648997
0.0013231428 -0.0026158507 0.0029649613 0.04421414 0.03713572 0.026227323 0.02364184 -0.019442031
-0.046160564 0.027385762 -0.040470354 0.031883672 0.012915878 0.04127705 0.038222834 0.036268264
-0.010758873 -0.03655605 -0.04444663 0.04774445 -0.018532054 0.036172725 -0.029680384 -0.033408795
0.029406477 -0.01953937 0.00343727 -0.022812672 -0.008141268 0.008687117 0.041836083 0.027270561
-0.034297615 -0.034758613 -0.047382418 -0.008024716 0.029902365 -0.0066640046 0.0026310456 -0.0013068173
-0.018964859 -0.0417851 0.005760608 0.027130794 -0.008790484 0.0041809836 -0.04138732 0.0030552803
-0.03699309 0.022005325 0.0066078682 0.04287034 0.017648533 -0.0032657967 0.017768975 -0.00809883
-0.036614772 0.042247918 -0.0028502995 -0.040344115 0.0011151151 -0.029702727 0.03277472 -0.0109685
0.047752045 -0.029536756 0.04163675 -0.04124766 0.019347591 0.039755862 0.03968984 0.0060697254
-0.044492975 0.035649806 -0.016461214 -0.04057277 0.038751524 0.03401656 -0.017224116 -0.042165693
0.010894786 -0.03531883 -0.045514684 -0.009442476 0.019647691 0.0112443715 0.045943335 -0.02326656
-0.000831997 0.017215256 -0.016591897 -0.04108136 0.013695608 0.008014487 -0.03175746 0.019920122
-0.036760394 -0.04417547 0.03874396 -0.03656409 0.03462705 -0.021914702 -0.05031644 0.028974209
-0.0008475368 -0.010895234 0.014588743 -0.017350376 0.02569864 -0.0120249875 -0.0021383876 -0.007673276
0.009468806 -0.021241473 0.0031248406 -0.03720441 0.0076806005 0.04253519 -0.04644439 -0.039824694
-0.003536148 -0.013669776 0.042017687 0.008219365 0.032997098 0.043416046 0.010392408 -0.038146876
-0.004301971 0.029451532 0.02029559 -0.04202104 0.014209922 0.034496266 -0.0056810104 0.028221328
-0.015911143 0.009419143 0.031671017 -0.02338385 0.008869608 -0.025674699 0.02483367 0.030785874
-0.050667584 -0.04589125 0.03744596 -0.015810087 0.01982496 0.049433928 0.03207741 0.00065572606
0.01827901 0.021794824 0.013921533 -0.0307068 0.014663211 0.0036566665 -0.0013195092 0.030937586
-0.0064739254 -0.00018177656 0.02644576 -0.041984163 0.0073285 0.013800906 0.0051904195 0.040491328
-0.0017723189 -0.04249713 -0.020778963 -0.015794232 -0.032444052 0.05137891 0.03188162 -0.0118053425
-0.019205073 0.02985804 -0.041804057 0.009784804 0.04377088 0.048897956 -0.051321715 0.009478974
-0.039896015 0.035156623 0.00017662611 0.012001267 0.041924905 -0.050783854 -0.014814092 0.030672463
-0.005594406 0.043508172 0.016488284 0.0069891135 0.02736249 -0.025944583 -0.01844174 0.009979358
0.046516743 0.020617938 0.033405103 0.030905044 0.0044312007 -0.007688606 -0.022313224 -0.037422825
0.021447157 0.003986701 -0.012996393 0.019263828 0.014608402 0.025849398 -0.046573844 -0.016886743
00000000: 164b 363c a1e1 ac3b b37c 0cbb c823 1c3d
00000010: f03e d2bc 1efa cabc b98b 2e3d 593e 9cbc
00000020: 540a bf3c 0501 b5bc e398 ba3c 8ce8 7c3b
00000030: 6894 01bd f24e bdbb 1fde 21bd 2c84 2bbd
00000040: a5cf 673c 05fc 90bc 0e66 003d 2c41 6ebc
00000050: c6d6 b1bc ebc7 a53c db44 b9bc 8fac 103d
00000060: 7356 e43b a35f 03bc 4097 923c 6e20 9c3c
00000070: f775 c7bc 6631 bdbc e948 683c 1a3b 48bc
00000080: 47f3 b73c 2f41 ad3c ff91 ccbc 743b 3ebc
00000090: 0a7b 0d3d 91bd 90bc 9fdc 9c3c b7b0 2ebd
000000a0: 4e6d ad3a b16e 2bbb cc4f 423b e319 353d
000000b0: a01b 183d afda d63c 88ac c13c e544 9fbc
000000c0: dc12 3dbd 1b58 e03c 3ec4 25bd 7498 023d
000000d0: 1e9d 533c 2012 293d 8c8f 1c3d 088e 143d
000000e0: fc45 30bc ccbb 15bd ab0d 36bd af8f 433d
000000f0: 89d0 97bc da29 143d 4724 f3bc a9d7 08bd
00000100: dae5 f03c 0711 a0bc d243 613b a4e1 babc
00000110: f462 05bc 6954 0e3c 505c 2b3d 8366 df3c
00000120: a87b 0cbd 0c5f 0ebd 1114 42bd 197a 03bc
00000130: cef5 f43c b95d dabb 9f6d 2c3b 8349 abba
00000140: 315c 9bbc da26 2bbd 7bc3 bc3b 6641 de3c
00000150: f605 10bc a200 893b c085 29bd 193b 483b
00000160: 1186 17bd 8344 b43c d186 d83b cf98 2f3d
00000170: a893 903c fa06 56bb 3e90 913c f4b0 04bc
00000180: 5ff9 15bd 270c 2d3d 17cc 3abb df3f 25bd
00000190: 0e29 923a 2253 f3bc c93e 063d 39b5 33bc
000001a0: a697 433d 11f7 f1bc 4c8b 2a3d 4ef3 28bd
000001b0: d77e 9e3c 0bd7 223d d091 223d 8ce4 c63b
000001c0: 443e 36bd 8805 123d abd9 86bc a22f 26bd
000001d0: ebb9 1e3d f354 0b3d 9719 8dbc efb5 2cbd
000001e0: 0b80 323c 7aaa 10bd 9b6d 3abd 9db4 1abc
000001f0: 32f4 a03c 503a 383c 142f 3c3d 8399 bebc
00000200: 601a 5aba 0207 8d3c bbeb 87bc ee44 28bd
00000210: 8b63 603c 324f 033c 1c14 02bd 862f a33c
00000220: 1192 16bd 56f1 34bd fdb1 1e3d 3ac4 15bd
00000230: 18d5 0d3d 7686 b3bc 9d18 4ebd 525b ed3c
00000240: 3b2d 5eba ec81 32bc a005 6f3c 6022 8ebc
00000250: f485 d23c 7404 45bc 3124 0cbb 1b70 fbbb
00000260: 0d23 1b3c 9902 aebc 20ca 4c3b a763 18bd
00000270: 8cad fb3b 6139 2e3d 793c 3ebd 381f 23bd
00000280: b8be 67bb 32f7 5fbc bd1a 2c3d 84aa 063c
00000290: f727 073d 06d5 313d eb44 2a3c e63f 1cbd
000002a0: 8cf7 8cbb 5744 f13c f042 a63c 411e 2cbd
000002b0: bcd0 683c f54b 0d3d c527 babb 6a30 e73c
000002c0: 1658 82bc c052 1a3c 78b9 013d 7d8f bfbc
000002d0: d551 113c bf53 d2bc fb6f cb3c a832 fc3c
000002e0: d088 4fbd 77f8 3bbd ef60 193d 2884 81bc
000002f0: f467 a23c 3b7b 4a3d 9a63 033d 08e5 2b3a
00000300: ddbd 953c 0f8b b23c 2417 643c d48c fbbc
00000310: f73d 703c afa4 6f3b 62f3 acba d270 fd3c
00000320: 3923 d4bb 469b 3eb9 c7a4 d83c 96f7 2bbd
00000330: ea23 f03b 321d 623c 6514 aa3b 3cda 253d
00000340: 274d e8ba 7811 2ebd a538 aabc e862 81bc
00000350: 0ee4 04bd b172 523d 4d96 023d 326b 41bc
00000360: f553 9dbc d998 f43c bb3a 2bbd 7150 203c
00000370: 1849 333d 3949 483d b836 52bd b34d 1b3c
00000380: 016a 23bd 6400 103d b634 3939 f6a0 443c
00000390: 73b9 2b3d bb02 50bd ceb6 72bc d144 fb3c
000003a0: 4751 b7bb a035 323d 7012 873c ef04 e53b
000003b0: 4d27 e03c bc89 d4bc 2213 97bc 7680 233c
000003c0: 5788 3e3d f3e6 a83c cad3 083d 932c fd3c
000003d0: 9b33 913b b4f0 fbbb 39ca b6bc ad48 19bd
000003e0: f3b1 af3c dfa2 823b d3ee 54bc 2dcf 9d3c
000003f0: 1458 6f3c 1ec2 d33c 37c4 3ebd 1156 8abc
