outputs/sft/final/score_head.pt (torch, 3453 bytes, 1 tensors)

weight f4 [1, 384]
000000 e9 71 13 3d 81 9b 84 3c d2 06 30 3d 8f 17 ac 3b
       0.035997305 0.016187431 0.042975254 0.005251832
000010 6d 45 96 bc 08 8d e4 3a 9d 74 94 bb 3f 57 12 bc
       -0.018343652 0.001743705 -0.004530503 -0.008931934
000020 a7 02 37 bd e2 37 2d bd c5 b0 16 3d cb 2c 16 bc
       -0.044680264 -0.042289622 0.036789674 -0.009165953
000030 03 6a 0a 3d ac 5b 48 bc f8 58 43 bd f1 ff a1 3c
       0.033792507 -0.0122288875 -0.04769227 0.019775363
000040 bc 22 a8 bc 44 38 a4 bc 82 9d 8a bc de 02 c9 3c
       -0.020524375 -0.02004636 -0.016920809 0.0245375
000050 ce 34 3e 3c 1a a0 1f bb 2f 64 81 bc db 62 ac bc
       0.011609269 -0.0024356903 -0.015794842 -0.021043232
000060 d3 7d 2b 3d bb 08 41 bd 7a fa eb b9 be a4 34 3c
       0.041868042 -0.047127467 -0.00045009312 0.011025606
000070 a9 13 10 bd 65 ed 81 bc 42 cd 08 3d 46 88 26 bd
       -0.035175 -0.015860269 0.033398874 -0.040657304
000080 cf 7f 1e bd b6 98 1d bc 5f 81 35 bd 64 f6 45 3d
       -0.038696107 -0.009618929 -0.04431283 0.04833068
000090 8d a4 fc bc 38 ff 41 3b 82 67 06 bd d4 8c f9 3c
       -0.030840183 0.0029601585 -0.032813556 0.03046266
0000a0 2f 63 3a 3d 4c 1c 3e 3d 4a 55 22 3b 01 47 97 bc
       0.045504745 0.046413705 0.0024770075 -0.018466474
0000b0 80 1c 67 36 ab f7 99 bc 9b 0c 0b bd fd 95 29 3d
       3.4438272e-06 -0.018794855 -0.03394757 0.041402806
0000c0 d6 c8 3e bd e1 88 51 bd 80 d1 35 bd 6f b4 36 3d
       -0.04657825 -0.05115593 -0.044389248 0.04460567
0000d0 0d 7c 8c bb 43 f7 ca bc 61 97 04 3c 8d ab 8f bc
       -0.004287249 -0.024776107 0.008092732 -0.017537856
0000e0 46 08 5c 3c 02 68 d7 3b 80 3b 14 bc 6b 71 94 bb
       0.013429707 0.006573678 -0.009047389 -0.004530122
0000f0 08 41 20 3c b5 04 e9 bc f3 e7 1d bd e4 cd 37 bd
       0.00978113 -0.028444627 -0.038551282 -0.044874087
000100 2d d6 14 3d 45 4f 07 bd d4 98 51 3d 01 02 b2 3b
       0.036337066 -0.03303458 0.05117114 0.005432368
000110 ba ae 36 bd 26 0e 33 3d 50 4a 5e 3c 2c 9d a6 3c
       -0.044600226 0.043714665 0.013567522 0.020338617
000120 e8 68 2b 3d c4 2f 2b 3d ff 16 83 bc 4e 8a 97 3b
       0.041848093 0.0417936 -0.016002176 0.0046246415
000130 a2 8d ea bc 2b fb 99 bc 9d cc 69 bc 66 4d b0 bc
       -0.028631989 -0.018796524 -0.014269975 -0.021521281
000140 bc ae 9b 3c f5 3f 12 bd ba d1 11 bd 29 1c 21 3d
       0.019004218 -0.035705525 -0.0356004 0.039333496
000150 4a 77 30 3d 9f 07 14 bd 5b ed 1e 3d ec 3d 2d bd
       0.043082513 -0.03614008 0.03880058 -0.04229538
000160 ab 89 07 3d aa ec 00 3d 28 bc 33 3d 18 77 19 3d
       0.033090275 0.0314757 0.04388061 0.037467092
000170 dd 6f d5 bb b4 83 0b 3c 84 9e 46 3d eb 3a 28 bd
       -0.0065135793 0.008515287 0.048491016 -0.041071814
000180 b1 68 4e bd 3d cc 7b bc e1 b9 05 bd df 81 5b bc
       -0.05039281 -0.015368518 -0.03264797 -0.013397663
000190 74 98 ef 39 eb fe ca bc 66 f4 01 bd 83 1e ac 3c
       0.0004569922 -0.024779757 -0.031727217 0.021010643
0001a0 c3 66 d2 3c e2 91 d4 bc b1 9b b8 bc 69 fa 62 3b
       0.025683766 -0.025948469 -0.022535177 0.003463412
0001b0 69 41 4f bc 74 ee 0d bd 7d 9c 36 3d ab 89 09 3d
       -0.012649872 -0.034651235 0.044582833 0.033578556
0001c0 21 cb f1 3b 37 a6 5b 3c 8e be 1f 3d 0a 90 f7 3b
       0.007378951 0.013406328 0.039000086 0.0075550126
0001d0 c0 7b ba 3c 81 04 13 3d 76 1b af bc c6 6e bf bc
       0.022764087 0.035892967 -0.0213754 -0.02336825
0001e0 0b 9b b9 3c 58 22 4a bc 51 3f 8e 3c 50 06 af bc
       0.022656938 -0.01233729 0.017364176 -0.021365315
0001f0 ae 11 18 bd 44 d6 45 3d 6e 81 2c 3d 29 9e 0b bd
       -0.037126236 0.048300043 0.04211562 -0.03408638
000200 49 85 c7 3c 3b fa 04 3d 52 0b ae 3c 65 49 44 3c
       0.024355548 0.0324652 0.021245632 0.011980389
000210 4d cc 8e 3a 68 f6 bc 3c 05 05 21 bc 14 d1 39 3d
       0.0010894627 0.023066714 -0.009827857 0.045365408
000220 07 5e ff bc 88 3c 6e bc 85 ec 2a bc ea b2 ca 3c
       -0.031172765 -0.014540799 -0.010432367 0.024743516
000230 ee 93 5c 3c 27 12 1c 3c 78 a5 95 3c c6 ab 07 3d
       0.013463004 0.009525812 0.018267378 0.0331228
000240 a1 ad d0 bc a8 7b eb bc f0 1b 5c 3b 26 a2 4a 3d
       -0.025473418 -0.028745487 0.0033585988 0.049471043
000250 a6 a1 2c bd 5c d6 0f bd 0d cc 63 bb ec 10 20 3d
       -0.042146347 -0.03511654 -0.0034759075 0.039078638
000260 9e 94 17 bd 5f 36 18 3d 70 dd 26 3d 2e 2a 15 bb
       -0.037006967 0.037161227 0.040738523 -0.0022760737
000270 d5 fc 87 bb a8 55 db 3c 16 61 88 bc 53 3a aa ba
       -0.004150013 0.026774243 -0.016647857 -0.0012987353
000280 02 59 1a 3d b2 c7 81 bb 3d 8f 1c bb 0b f8 9c 3b
       0.03768254 -0.003960573 -0.0023889088 0.004790311
000290 ab 79 9c 3b d7 53 39 3d e7 24 cf bc ab f4 53 3c
       0.004775246 0.04524597 -0.025286151 0.012936751
0002a0 71 25 b1 3c 94 23 32 3d e6 65 1d 3d f4 10 3b bd
       0.021624299 0.04349096 0.038427256 -0.045670465
0002b0 3b 8b 42 bc 2c 4f 35 3a f0 5a eb ba 61 62 8b 3b
       -0.011874015 0.00069163996 -0.0017956179 0.004253671
0002c0 0b 2b ec b9 20 45 55 3c 51 d1 12 bd 62 41 d6 bb
       -0.00045045497 0.013016969 -0.03584415 -0.006538556
0002d0 c1 fe ed bc 72 d5 9e 3c 30 55 46 bd ca 7f 17 bd
       -0.02905214 0.019388888 -0.048421085 -0.036987104
0002e0 d4 6f 0e bd 5b b9 8f bc 8c 05 f2 bc 1a 2b 04 3d
       -0.034774616 -0.017544439 -0.02954366 0.032267667
0002f0 22 3e 2d 3d 22 94 3e 3d d4 bf ad bc 70 47 d9 bc
       0.042295583 0.04652799 -0.021209635 -0.026523322
000300 13 d9 86 3c b3 7f 23 3d 68 8a 34 bd 48 5e 96 3c
       0.01646093 0.039916705 -0.044077307 0.018355504
000310 9c ab 06 3d 0d 28 67 bb 78 7a 05 bd 44 02 0a 3d
       0.032878503 -0.0035271675 -0.0325875 0.033693567
000320 90 4e 08 bd 14 b4 0b 3d 16 97 37 bd 14 5d 1c bd
       -0.033278048 0.034107283 -0.04482182 -0.038174704
000330 6e 18 fc bc 2b 43 ee 3c e4 ef ad 3c c3 1d 8e bb
       -0.030773368 0.029084763 0.021232553 -0.004337044
000340 03 b6 50 3c 1c 63 a8 3c 9b 3d 23 bd b3 89 ca bc
       0.0127387075 0.020555072 -0.039853673 -0.024723863
000350 fe ba d4 bc d9 86 50 3d 0b 63 82 3b ff 63 3e 3c
       -0.025968071 0.05090985 0.003979092 0.011620521
000360 17 cb 9d 3c 3c ce 01 bd e5 b0 e3 3c b2 15 45 3d
       0.01926188 -0.03169082 0.02779431 0.048116393
000370 3c 23 1e bc da aa f9 bc 4f e4 81 bc 71 b1 82 bc
       -0.009651955 -0.030476976 -0.015855936 -0.015953751
000380 81 d6 8f bb fe 45 21 bd e9 20 16 3d dd cc 07 3d
       -0.0043895845 -0.03937339 0.03665248 0.033154357
000390 76 00 fb bc d0 60 ff 3c 5d 31 0e bd b3 8f b3 3b
       -0.030639868 0.031174093 -0.034715045 0.0054797768
0003a0 39 be 69 bc b1 bd 05 3d f2 c9 c1 3c 53 60 2c bc
       -0.014266544 0.032651607 0.023655865 -0.010521012
0003b0 cc 54 ba 3c 0e 0b 22 3d 61 5c ca 3c d4 3c 39 3b
       0.022745512 0.039561324 0.024702253 0.0028265016
0003c0 11 ac 95 bc 77 df 50 3d 9e 67 bd 3c 48 13 e0 bb
       -0.018270524 0.050994363 0.023120698 -0.006838236
0003d0 2f 94 4a bd 43 a2 70 3b 89 10 25 3b 30 0a 91 bb
       -0.049457725 0.003671781 0.0025186858 -0.0044262633
0003e0 f8 19 47 bd f6 ac bc 3c a7 7b 2f 3d 57 9c 86 3c
       -0.04860875 0.023031693 0.042842533 0.01643197
0003f0 59 93 2b bd c3 1e 1d 3d 96 9d 21 3d 41 6b 6a 3b
       -0.04188857 0.038359415 0.039456926 0.0035769495
