outputs/ppo_synthetic_overfit/epoch-2/score_head.pt (torch, 3453 bytes, 1 tensors)

weight f4 [1, 384]
0	0x3c214be8	0.009844758
1	0x3b8d41d8	0.0043108277
2	0xbaba2c74	-0.0014203922
3	0x3d182ca0	0.037151933
4	0xbcc90ef1	-0.024543257
5	0xbccaa92e	-0.024738874
6	0x3d29394d	0.041314412
7	0xbc90bbfd	-0.017667765
8	0x3cb53640	0.022120595
9	0xbcaabc61	-0.02084178
10	0x3cc44c82	0.023962263
11	0x3b52848e	0.0032122466
12	0xbd076bce	-0.033061795
13	0xbb8642d8	-0.004097324
14	0xbd1ad51a	-0.037800886
15	0xbd257174	-0.0403914
16	0x3c4f8cac	0.012667816
17	0xbc8b5739	-0.017009364
18	0x3cf68f6d	0.030097688
19	0xbc675e40	-0.014121592
20	0xbca9ec5e	-0.020742591
21	0x3c9cd28e	0.019143369
22	0xbcb05f5a	-0.021529842
23	0x3d0b6122	0.03402818
24	0x3bc1e0e7	0.005916703
25	0xbc1ee2a3	-0.009697589
26	0x3c818b73	0.015813565
27	0x3c8facd0	0.017538458
28	0xbcbdf786	-0.023189317
29	0xbccff315	-0.025384465
30	0x3c4e405c	0.012588587
31	0xbc399d74	-0.011329044
32	0x3caab994	0.020840444
33	0x3c9bbcd2	0.019010935
34	0xbccaa004	-0.024734505
35	0xbc1fedb3	-0.009761262
36	0x3d0978bc	0.033562407
37	0xbc967ac6	-0.01836909
38	0x3c918f2a	0.017768461
39	0xbd295869	-0.04134408
40	0x3b1169b0	0.0022188239
41	0xbb39ce0d	-0.0028351576
42	0x3ab6d85e	0.001394998
43	0x3d2e9ade	0.04262816
44	0x3d118f94	0.035537317
45	0x3cc85b60	0.024457633
46	0x3cb572c2	0.022149447
47	0xbc954722	-0.018222395
48	0xbd36e36d	-0.044650484
49	0x3cd67fbe	0.02618396
50	0xbd23873d	-0.039923895
51	0x3cf9f3fd	0.03051185
52	0x3c39d828	0.01134304
53	0x3d236c28	0.039898068
54	0x3d175858	0.036949486
55	0x3d0f8b1c	0.035044774
56	0xbc2a4ca3	-0.010394248
57	0xbd11aec2	-0.035567053
58	0xbd2f02ba	-0.04272721
59	0x3d3e5c55	0.046474773
60	0xbc8d70fa	-0.017265785
61	0x3d15f50e	0.036610655
62	0xbcf0db24	-0.02940137
63	0xbd038c59	-0.032116268
64	0x3cf27e4c	0.029601239
65	0xbc97e110	-0.018539935
66	0x3b1809ee	0.0023199278
67	0xbcb84edd	-0.022498542
68	0xbbe10550	-0.0068670884
69	0x3c08b225	0.008343254
70	0x3d24afd1	0.040206734
71	0x3cd5d8b4	0.026104309
72	0xbd08a743	-0.03336264
73	0xbd093767	-0.0335001
74	0xbd3e8a72	-0.04651875
75	0xbc1ee3fe	-0.009697912
76	0x3ceace73	0.028662896
77	0xbbb84d98	-0.0056244843
78	0x3b832e79	0.0040033427
79	0xbadf1a12	-0.0017021319
80	0xbc8eb073	-0.017418122
81	0xbd26aedd	-0.040694106
82	0x3bb1e07c	0.005428372
83	0x3ce41537	0.027842147
84	0xbbe7c26c	-0.0070727374
85	0x3b934350	0.0044941083
86	0xbd25ac8c	-0.040447757
87	0x3b6d0a75	0.0036169563
88	0xbd10274b	-0.035193723
89	0x3ca0e157	0.0196387
90	0x3bc78128	0.0060883947
91	0x3d296e38	0.04136488
92	0x3c911134	0.017708398
93	0xba99f557	-0.0011746091
94	0x3c8903a0	0.016725361
95	0xbbf637c8	-0.007513974
96	0xbd0c649d	-0.03427564
97	0x3d2983ad	0.04138534
98	0xbb9dadef	-0.0048119943
99	0xbd1f6520	-0.0389148
100	0x37ae6496	2.0789255e-05
101	0xbcf06985	-0.02934719
102	0x3d0672d7	0.032824364
103	0xbc404f78	-0.011737697
104	0x3d3d587b	0.04622696
105	0xbceb80b8	-0.028747901
106	0x3d24e814	0.04026039
107	0xbd25e89c	-0.040505037
108	0x3cac21f8	0.021012291
109	0x3d180a50	0.03711921
110	0x3d1b778d	0.03795581
111	0x3b8d17eb	0.0043058298
112	0xbd2fd67a	-0.04292915
113	0x3d085807	0.033287074
114	0xbc76f610	-0.015073314
115	0xbd1fe20a	-0.039033927
116	0x3d21e532	0.03952522
117	0x3d069271	0.0328545
118	0xbc7f06ef	-0.015565618
119	0xbd276cb9	-0.04087517
120	0x3c42026e	0.0118414
121	0xbd0df64e	-0.034658723
122	0xbd35db96	-0.044398867
123	0xbbfd6a69	-0.0077336323
124	0x3c9b8acd	0.018987084
125	0x3c22264a	0.009896824
126	0x3d34dd79	0.044156525
127	0xbcc618e0	-0.024181783
128	0x39ce09d6	0.0003929871
129	0x3c9581fe	0.018250462
130	0xbc8297c8	-0.015941516
131	0xbd21c769	-0.039496813
132	0x3c6f6db0	0.014613554
133	0x3bbc45d3	0.0057456284
134	0xbd01cf36	-0.031691752
135	0x3c9710a9	0.018440561
136	0xbd152b32	-0.036418147
137	0xbd3239c8	-0.043512136
138	0x3d1e66fb	0.03867243
139	0xbd104645	-0.035223264
140	0x3d08e241	0.033418898
141	0xbcaa2148	-0.020767823
142	0xbd494734	-0.04914017
143	0x3ce1e3c6	0.027574431
144	0xb979db12	-0.000238281
145	0xbc104c57	-0.008807263
146	0x3c7a912f	0.0152934035
147	0xbc8335ca	-0.01601686
148	0x3cc8e9cd	0.024525547
149	0xbc5c8ad6	-0.013460835
150	0xbb343fbc	-0.002750381
151	0xbbcba198	-0.006214332
152	0x3c167a40	0.00918442
153	0xbca1eec2	-0.019767169
154	0x3b621302	0.0034496193
155	0xbd144db6	-0.036206923
156	0x3c1395ac	0.0090078525
157	0x3d268866	0.040657423
158	0xbd36aa2a	-0.044595875
159	0xbd1edfa6	-0.038787507
160	0xbba0e749	-0.004910384
161	0xbc4ac61f	-0.012376337
162	0x3d269a42	0.040674455
163	0x3c1067fc	0.008813854
164	0x3cf8c01a	0.030365039
165	0x3d299fe3	0.041412245
166	0x3c39f65f	0.011350243
167	0xbd15cad4	-0.036570385
168	0xbb68272e	-0.0035423744
169	0x3cec4082	0.028839353
170	0x3c9c9995	0.019116202
171	0xbd260545	-0.04053237
172	0x3c7e6e7a	0.015529269
173	0x3d07fd6a	0.03320066
174	0xbb828c46	-0.003984007
175	0x3cdc5d18	0.02689986
176	0xbc6db481	-0.0145083675
177	0x3bf4f643	0.0074756457
178	0x3cfa6f40	0.030570626
179	0xbcb281e4	-0.021790452
180	0x3be6063f	0.0070197876
181	0xbccd7241	-0.025078895
182	0x3cc578e2	0.024105493
183	0x3cea0aee	0.028569665
184	0xbd4ea7e9	-0.0504531
185	0xbd34b464	-0.044117346
186	0x3d15faeb	0.036616247
187	0xbc86fb14	-0.016477145
188	0x3c9d39a1	0.019192519
189	0x3d4481ad	0.04797523
190	0x3cfad23f	0.030617831
191	0x3b0a7a6e	0.0021130103
192	0x3c8bb382	0.01705337
193	0x3ca8e89a	0.020618726
194	0x3c44a0c1	0.012001217
195	0xbcf46197	-0.02983169
196	0x3c5cda54	0.013479788
197	0x3b405a8f	0.0029350852
198	0xba98315d	-0.0011611391
199	0x3cf70e67	0.030158235
200	0xbbc77f88	-0.006088201
201	0x3a6c0c79	0.0009004544
202	0x3ccfe102	0.025375847
203	0xbd2b7cec	-0.04186718
204	0x3be830db	0.007085902
205	0x3c4466a9	0.011987367
206	0x3b8e0d6f	0.0043350975
207	0x3d218621	0.039434556
208	0xbabb24b1	-0.0014277903
209	0xbd288e4c	-0.04115133
210	0xbc9da243	-0.019242411
211	0xbc6d9f13	-0.014503258
212	0xbd025098	-0.03181514
213	0x3d4c6ad9	0.049906585
214	0x3d036825	0.03208174
215	0xbc44f1ab	-0.012020509
216	0xbc9357e6	-0.01798625
217	0x3ce6db41	0.02818072
218	0xbd23ca70	-0.03998798
219	0x3c221d92	0.009894745
220	0x3d2d8759	0.042365406
221	0x3d457291	0.048204962
222	0xbd4e6608	-0.050390273
223	0x3c2886fc	0.010286089
224	0xbd29e4ca	-0.041477956
225	0x3d0c1dc1	0.034208063
226	0xba2adef9	-0.0006518211
227	0x3c4413eb	0.011967639
228	0x3d2672fa	0.040636994
229	0xbd4c2949	-0.04984406
230	0xbc586361	-0.0132072875
231	0x3cf01b08	0.029309765
232	0xbb507cc7	-0.0031812654
233	0x3d2c5ea9	0.042082462
234	0x3c77e8da	0.0151312
235	0x3bc97317	0.006147753
236	0x3cd550ad	0.026039446
237	0xbcc7910f	-0.024361162
238	0xbc894d82	-0.016760591
239	0x3c357c0d	0.011076939
240	0x3d39a0be	0.04531931
241	0x3ca01621	0.019541802
242	0x3d0d3791	0.03447682
243	0x3d0330a2	0.0320288
244	0x3b2b0da3	0.0026100657
245	0xbbcc4e90	-0.0062349513
246	0xbcbe9676	-0.023265105
247	0xbd139309	-0.036028896
248	0x3ca9c0d1	0.020721825
249	0x3ba63051	0.0050716777
250	0xbc5424e2	-0.012948247
251	0x3c8ee3cb	0.017442605
252	0x3c51bd3d	0.012801466
253	0x3cc3b952	0.023892079
254	0xbd3ab1e4	-0.045579806
255	0xbc98958d	-0.018625999
