outputs/ppo_synthetic_overfit/epoch-9/score_head.pt (torch, 3453 bytes, 1 tensors)

weight f4 [1, 384]
000000 a6 a6 20 3c 6d 9f 8c 3b 81 63 b8 ba 6d 08 18 3d
       0.009805357 0.004291466 -0.001406774 0.03711741
000010 72 bc c8 bc b4 23 ca bc 6a e8 28 3d 92 df 8f bc
       -0.02450392 -0.024675228 0.041237272 -0.017562661
000020 e2 eb b4 3c 34 8e aa bc 77 5a c4 3c b9 ef 4e 3b
       0.022085134 -0.02081976 0.023968918 0.0031575991
000030 fd c9 07 bd 41 2f 85 bb 44 94 1a bd 6c 65 25 bd
       -0.033151615 -0.004064471 -0.037739053 -0.040379927
000040 96 5a 50 3c 75 f3 89 bc 79 86 f6 3c 20 30 66 bc
       0.01271691 -0.016839722 0.030093418 -0.01404956
000050 1e b7 a9 bc 12 95 9c 3c 3a 22 b0 bc e5 52 0b 3d
       -0.0207172 0.019114051 -0.021500695 0.0340146
000060 c8 10 c2 3b eb 38 1f bc de 5d 81 3c d6 ff 8f 3c
       0.0059224106 -0.00971816 0.01579183 0.017578047
000070 5e 55 bd bc 59 dd cf bc eb e8 4d 3c 9c 0c 38 bc
       -0.023111995 -0.025374101 0.012567739 -0.011233475
000080 fb 7a aa 3c 8b d1 9b 3c a6 d1 c9 bc f8 cd 1e bc
       0.020810595 0.019020816 -0.024636101 -0.009692661
000090 05 2a 09 3d a0 d7 96 bc 8d 4e 91 3c 6e 2a 29 bd
       0.03348734 -0.018413365 0.017737651 -0.04130023
0000a0 79 89 16 3b 0f 18 38 bb 9e 4d ae 3a 66 89 2e 3d
       0.0022970124 -0.0028090512 0.0013298278 0.042611502
0000b0 6a 40 11 3d 08 08 c8 3c c8 63 b5 3c 54 78 94 bc
       0.03546182 0.024417892 0.022142306 -0.018123783
0000c0 a1 b9 36 bd d8 1a d6 3c a3 45 23 bd 24 f3 f9 3c
       -0.044610623 0.026135847 -0.039861333 0.030511446
0000d0 38 d9 39 3c 68 3d 23 3d 6c 1b 17 3d b8 63 0f 3d
       0.011343293 0.039853483 0.036891386 0.03500721
0000e0 92 f5 29 bc 78 71 11 bd ea e8 2e bd 61 e5 3d 3d
       -0.01037349 -0.035508603 -0.042702593 0.04636133
0000f0 83 44 8d bc 0c 3a 16 3d ac 87 f0 bc c3 2a 03 bd
       -0.017244583 0.03667645 -0.029361568 -0.032023203
000100 11 79 f2 3c 46 a2 97 bc d7 ea 11 3b 65 33 b8 bc
       0.029598745 -0.018509995 0.002226522 -0.022485444
000110 47 09 de bb e3 0e 09 3c a4 7c 24 3d 3a 87 d5 3c
       -0.0067760083 0.008365366 0.04015793 0.026065458
000120 04 65 08 bd fb e4 08 bd 0a 49 3e bd c9 bd 1f bc
       -0.03329946 -0.033421498 -0.046456374 -0.009749838
000130 40 79 ea 3c cb 06 b7 bb a3 0c 83 3b ab 03 db ba
       0.02862227 -0.0055855266 0.003999309 -0.0016709467
000140 c3 91 8e bc 67 86 26 bd 8c 08 b3 3b 7d 27 e4 3c
       -0.017403489 -0.04065552 0.0054636654 0.02785086
000150 c9 de e6 bb 11 cd 93 3b 21 6a 25 bd 19 c0 6f 3b
       -0.007045601 0.00451053 -0.040384416 0.0036583005
000160 82 21 10 bd c5 7c a0 3c 4b 7b ca 3b ce 5b 29 3d
       -0.035188206 0.019590745 0.0061792484 0.041347317
000170 84 97 90 3c 42 42 9a ba e9 31 89 3c 68 89 f4 bb
       0.017650373 -0.0011769014 0.016747432 -0.007462669
000180 e1 69 0c bd 19 19 29 3d 45 83 9e bb a0 33 1f bd
       -0.03428066 0.0412837 -0.004837426 -0.038867593
000190 7b af d7 b7 42 3d f0 bc 0e 46 06 3d 97 7e 40 bc
       -2.5711712e-05 -0.029326085 0.032781653 -0.011748931
0001a0 1d 55 3d 3d 2f 6f e9 bc 8c cb 24 3d ef 17 26 bd
       0.04622375 -0.0284954 0.04023318 -0.04055017
0001b0 cf 06 ac 3c a1 d4 17 3d 84 52 1b 3d 3c c8 8a 3b
       0.02099934 0.037068013 0.03792049 0.0042352956
0001c0 60 c8 2f bd c4 30 08 3d d3 71 76 bc 6c b6 1f bd
       -0.042915702 0.03324963 -0.015041786 -0.03899233
0001d0 5b b4 21 3d 9d 70 06 3d 8c 10 7e bc 25 2d 27 bd
       0.03947864 0.03282224 -0.015506875 -0.040814538
0001e0 dc 45 41 3c 1a 0a 0e bd b4 40 35 bd 1c 91 fb bb
       0.011796441 -0.034677602 -0.04425116 -0.0076772105
0001f0 0d 28 9b 3c b3 8a 22 3c 70 c8 34 3d 5a c7 c6 bc
       0.018939996 0.009920764 0.044136465 -0.02426498
000200 e7 27 d0 39 58 6e 95 3c a4 3e 82 bc 0e e4 21 bd
       0.0003970258 0.018241093 -0.01589901 -0.03952413
000210 40 e8 6e 3c 5a 68 bb 3b 7a b5 01 bd 0d fb 96 3c
       0.01458174 0.005719227 -0.03166721 0.018430257
000220 f1 1e 15 bd 88 6a 32 bd 65 71 1e 3d cb 10 10 bd
       -0.03640646 -0.043558627 0.03868236 -0.035172265
000230 59 ce 08 3d 82 77 a9 bc a0 ed 48 bd 4d 76 e1 3c
       0.033399913 -0.020686869 -0.04905474 0.02752223
000240 9e ac 41 b9 e2 8c 10 bc ff eb 78 3c 02 88 82 bc
       -0.00018470219 -0.008822652 0.015192985 -0.015933994
000250 e8 9f c8 3c 40 e6 5c bc 04 17 33 bb ea f7 c6 bb
       0.024490312 -0.01348263 -0.002732695 -0.006072034
000260 1e fc 15 3c 82 a5 a1 bc 31 99 65 3b 1e 4a 14 bd
       0.009154348 -0.01973224 0.0035033936 -0.036203496
000270 de 8e 15 3c 8b 63 26 3d 05 8f 36 bd a0 80 1e bd
       0.0091283005 0.040622275 -0.044569988 -0.038696885
000280 59 97 a1 bb d2 b7 49 bc 44 32 26 3d ad bc 0e 3c
       -0.004931372 -0.012311893 0.04057528 0.008711976
000290 6f 66 f8 3c 82 80 29 3d ad 9e 3a 3c 01 be 15 bd
       0.030322282 0.04138232 0.01139037 -0.036558155
0002a0 2b fa 69 bb 7e 0e ec 3c 5e 52 9c 3c 39 c8 25 bd
       -0.003570209 0.028815504 0.019082244 -0.04047415
0002b0 e8 b0 7e 3c 61 05 08 3d 75 67 82 bb 15 06 dc 3c
       0.015545107 0.033208255 -0.003979618 0.026858369
0002c0 c1 cf 6c bc b1 d6 f2 3b 11 24 fb 3c 2c 52 b2 bc
       -0.014453829 0.007410847 0.030656846 -0.021767698
0002d0 9e c9 e4 3b 07 eb cc bc 32 42 c5 3c d3 9a e9 3c
       0.0069820425 -0.025014414 0.024079416 0.028516209
0002e0 18 9a 4e bd de a9 34 bd e7 db 15 3d 07 8d 87 bc
       -0.050439924 -0.04410731 0.03658667 -0.01654674
0002f0 09 cb 9c 3c 78 4f 44 3d 8e ee fa 3c 98 65 0a 3b
       0.019139783 0.04792735 0.03063133 0.0021117684
000300 e1 c8 8b 3c 05 d7 a8 3c 45 08 44 3c af fd f3 bc
       0.01706356 0.020610342 0.011964862 -0.029784052
000310 d6 aa 5c 3c 5d 08 40 3b cb 4c 9a ba d6 10 f7 3c
       0.013468465 0.002930186 -0.0011772154 0.030159395
000320 3b 2c c5 bb c3 2e 80 3a 56 be cf 3c 4e 2d 2b bd
       -0.0060172356 0.0009779561 0.025359314 -0.041791253
000330 0f 20 eb 3b 39 68 44 3c 37 48 8e 3b 7a 55 21 3d
       0.0071754525 0.011987739 0.004342105 0.039388157
000340 7a f4 b6 ba 61 69 28 bd df 1f 9d bc 77 57 6e bc
       -0.0013958358 -0.041116122 -0.019180236 -0.01454722
000350 d6 2b 02 bd 93 47 4c 3d 1b 08 03 3d bd 4f 44 bc
       -0.031780086 0.049872946 0.03199015 -0.011981902
000360 d9 2d 93 bc 68 ec e6 3c 4f c1 22 bd 7b ae 21 3c
       -0.017966198 0.0281889 -0.039735135 0.00986826
000370 0c 54 2d 3d ad 89 45 3d c6 4e 4e bd e3 9d 24 3c
       0.04231648 0.048227 -0.050368093 0.010047409
000380 b7 05 29 bd 4e 0c 0c 3d 48 b8 36 ba fc c9 43 3c
       -0.041265216 0.034191422 -0.0006970209 0.011950012
000390 db 8f 26 3d 42 e3 4b bd b0 9d 57 bc 87 e5 ef 3c
       0.040664535 -0.049777277 -0.013160154 0.029284252
0003a0 9d 2a 4c bb 04 3d 2c 3d e7 85 76 3c 23 39 c8 3b
       -0.003115333 0.042050377 0.015046573 0.006110327
0003b0 2a 5e d5 3c 89 49 c7 bc 00 1f 89 bc 70 8e 36 3c
       0.026045877 -0.024327056 -0.016738415 0.011142358
0003c0 ae 2d 39 3d 03 e0 9f 3c 03 3c 0d 3d 79 4c 03 3d
       0.04520958 0.019515997 0.03448106 0.032055352
0003d0 bc 04 29 3b 7b 8c cb bb 41 6d bd bc 21 68 13 bd
       0.0025790175 -0.006211815 -0.023123385 -0.035987977
0003e0 ff 67 a9 3c ef 78 a2 3b 9c b0 54 bc 87 c2 8e 3c
       0.020679472 0.004958264 -0.01298156 0.017426742
0003f0 e6 33 51 3c fb 74 c3 3c a9 7a 3a bd 1c 41 99 bc
       0.012768721 0.023859492 -0.045527134 -0.018707804
