outputs/sft_synthetic/final/score_head.pt (torch, 3453 bytes, 1 tensors)

weight f4 [1, 384]
0	0x3c379326	0.0112045165
1	0x3bafb14f	0.005361713
2	0xbb11f705	-0.002227248
3	0x3d1c7a29	0.03820244
4	0xbcd2f40e	-0.02575114
5	0xbccb2fdc	-0.024803095
6	0x3d2ee24d	0.042696286
7	0xbc9cddf1	-0.019148799
8	0x3cbfb222	0.02340037
9	0xbcb5afa9	-0.022178488
10	0x3cb9f334	0.022698976
11	0x3b7ea1fc	0.0038853874
12	0xbd0146a9	-0.031561527
13	0xbbc045b3	-0.005867684
14	0xbd223b9d	-0.039607633
15	0xbd2bdad0	-0.041956723
16	0x3c691fe5	0.014228796
17	0xbc91a390	-0.017778188
18	0x3d00bdc6	0.031430982
19	0xbc6f5739	-0.014608198
20	0xbcb275d9	-0.02178471
21	0x3ca6779d	0.020320708
22	0xbcb9f84c	-0.022701405
23	0x3d1107b8	0.03540775
24	0x3be66f3f	0.0070323045
25	0xbc02c9dd	-0.007982698
26	0x3c9350b8	0.017982826
27	0x3c9cda5e	0.019147094
28	0xbcc81d80	-0.02442813
29	0xbcbc84da	-0.023012567
30	0x3c69c528	0.014268197
31	0xbc48906f	-0.012241467
32	0x3cb8a583	0.02253986
33	0x3cadfb35	0.021237949
34	0xbccd396f	-0.0250518
35	0xbc3fae38	-0.011699252
36	0x3d0dd47b	0.034626465
37	0xbc901ffa	-0.017593373
38	0x3c9d8a76	0.019231062
39	0xbd2f0a23	-0.042734277
40	0x3aa83662	0.001283359
41	0xbb2d32d3	-0.0026427999
42	0x3b4820c0	0.0030537099
43	0x3d357550	0.04430133
44	0x3d186ed4	0.03721507
45	0x3cd7920c	0.026314758
46	0x3cc25fc6	0.023727309
47	0xbc9fcbaf	-0.019506304
48	0xbd3d6a89	-0.046244178
49	0x3ce10005	0.02746583
50	0xbd25e3d2	-0.04050047
51	0x3d02f370	0.03197044
52	0x3c54b6dd	0.012983051
53	0x3d296be2	0.04136265
54	0x3d1ce759	0.038306568
55	0x3d14e007	0.03634646
56	0xbc2f6aa6	-0.010706579
57	0xbd160659	-0.036627147
58	0xbd366cf9	-0.04453752
59	0x3d43e68d	0.047827292
60	0xbc988a46	-0.018620621
61	0x3d146ec2	0.03623844
62	0xbcf36480	-0.029711008
63	0xbd09293a	-0.033486582
64	0x3cf1171f	0.02942997
65	0xbca0bf14	-0.019622363
66	0x3b6590b7	0.0035028884
67	0xbcbb8d78	-0.022894606
68	0xbc06b675	-0.008222212
69	0x3c0f08bc	0.00873011
70	0x3d2bb8d7	0.041924324
71	0x3ce0181e	0.02735525
72	0xbd0ccd2f	-0.034375366
73	0xbd0eb587	-0.034841087
74	0xbd427018	-0.047470182
75	0xbc021f30	-0.007942006
76	0x3cf5a02a	0.029983599
77	0xbbdc70d0	-0.0067273155
78	0x3b268a75	0.0025412117
79	0xbaa1c19b	-0.0012341024
80	0xbc9c0e5d	-0.019049818
81	0xbd2b795c	-0.041863784
82	0x3bbdc487	0.00579125
83	0x3cde00c2	0.02709997
84	0xbc116e53	-0.008876401
85	0x3b86c5e7	0.0041129473
86	0xbd29de57	-0.041471805
87	0x3b4357c1	0.0029806944
88	0xbd17e92a	-0.037087597
89	0x3cb4f4d6	0.022089403
90	0x3bdb0771	0.0066842367
91	0x3d2ff4f8	0.04295823
92	0x3c906a3a	0.017628778
93	0xbb5bf947	-0.003356533
94	0x3c922dbc	0.017844073
95	0xbc05bf03	-0.0081632165
96	0xbd165221	-0.036699418
97	0x3d2d3c92	0.042294092
98	0xbb352783	-0.002764196
99	0xbd258e37	-0.04041883
100	0x3a9ccdc3	0.0011963177
101	0xbcf39bf8	-0.029737458
102	0x3d066239	0.032808516
103	0xbc3268b8	-0.010889225
104	0x3d43ecbd	0.047833193
105	0xbcf27a35	-0.029599288
106	0x3d2adec7	0.041716363
107	0xbd2944b7	-0.041325297
108	0x3c9dbac4	0.019254096
109	0x3d233d3f	0.03985333
110	0x3d22ec6c	0.03977625
111	0x3bc80cdd	0.006105049
112	0xbd369bda	-0.044582225
113	0x3d125f92	0.035735674
114	0xbc87772a	-0.016536314
115	0xbd268706	-0.040656112
116	0x3d1ef07b	0.03880356
117	0x3d0babe5	0.03409948
118	0xbc8dd674	-0.017314173
119	0xbd2d1313	-0.04225452
120	0x3c311736	0.010808757
121	0xbd10dee7	-0.035368826
122	0xbd3aaaf4	-0.04557319
123	0xbc1bd334	-0.009510804
124	0x3ca14fc7	0.019691361
125	0x3c39ace4	0.011332724
126	0x3d3c8f32	0.046035
127	0xbcbeb528	-0.023279741
128	0xba711a29	-0.00091973186
129	0x3c8d0b7a	0.017217387
130	0xbc87f391	-0.016595634
131	0xbd289f99	-0.04116783
132	0x3c5f9465	0.01364622
133	0x3c04d31e	0.008106975
134	0xbd024e31	-0.03181285
135	0x3ca3e648	0.020007268
136	0xbd16de68	-0.036833197
137	0xbd354982	-0.044259556
138	0x3d1f00b0	0.038819015
139	0xbd162363	-0.03665484
140	0x3d0e2fff	0.03471374
141	0xbcb437d7	-0.021999283
142	0xbd4e7279	-0.05040214
143	0x3cee10fa	0.02906083
144	0xba6935cc	-0.0008896261
145	0xbc33d211	-0.010975377
146	0x3c6fb225	0.014629875
147	0xbc8ed9bb	-0.017437806
148	0x3cd32df5	0.02577875
149	0xbc43b5bc	-0.011945184
150	0xbb0afe76	-0.00212088
151	0xbbfde945	-0.007748755
152	0x3c1a5619	0.009419941
153	0xbcaea3f6	-0.021318417
154	0x3b4c1fc1	0.0031146856
155	0xbd18b901	-0.03728581
156	0x3bf911a5	0.0076009803
157	0x3d2e901b	0.0426179
158	0xbd3e93d3	-0.046527695
159	0xbd237096	-0.039902292
160	0xbb6341c6	-0.0034676655
161	0xbc60e0ca	-0.013725469
162	0x3d2c6d4a	0.042096414
163	0x3c07b3e4	0.008282635
164	0x3d07914f	0.03309756
165	0x3d3232fe	0.04350566
166	0x3c2abff3	0.010421741
167	0xbd1c9640	-0.038229227
168	0xbb8d7af7	-0.004317637
169	0x3cf1dd7a	0.029524554
170	0x3ca6dc34	0.020368673
171	0xbd2c7918	-0.04210767
172	0x3c678ffe	0.0141334515
173	0x3d0d9f11	0.034575526
174	0xbbbce819	-0.005764973
175	0x3ce7d485	0.02829958
176	0xbc830ea7	-0.015998198
177	0x3c1bba17	0.0095048165
178	0x3d020ba5	0.031749386
179	0xbcc04a62	-0.023472968
180	0x3c12cdc2	0.008960189
181	0xbcd2e4ee	-0.025743928
182	0x3ccbfdcc	0.024901293
183	0x3cfcef52	0.030875836
184	0xbd4fcc83	-0.050732147
185	0xbd3c5352	-0.045977898
186	0x3d19b5a1	0.03752673
187	0xbc8139e1	-0.01577467
188	0x3ca318b2	0.019909237
189	0x3d4ad20a	0.049516715
190	0x3d03bcc3	0.03216244
191	0x3a1b2f6a	0.0005919846
192	0x3c96789b	0.018368056
193	0x3cb32ac3	0.021870976
194	0x3c659761	0.014013142
195	0xbcfc34c7	-0.030786885
196	0x3c71898c	0.014742266
197	0x3b7498e7	0.0037322582
198	0xbab045e4	-0.0013448563
199	0x3cfe0bd2	0.031011496
200	0xbbd5bc33	-0.0065226792
201	0xb93b6403	-0.00017870967
202	0x3cd94799	0.026523398
203	0xbd2c4c3c	-0.04206489
204	0x3bee7824	0.0072775055
205	0x3c63900c	0.013889324
206	0x3bac8bcf	0.00526569
207	0x3d262df4	0.040571168
208	0xbaf17ab5	-0.001842341
209	0xbd2e6a45	-0.042581815
210	0xbcaaf2a9	-0.020867663
211	0xbc8212ef	-0.015878169
212	0xbd052d6d	-0.032514025
213	0x3d52ca09	0.051462207
214	0x3d024bbc	0.031810507
215	0xbc410845	-0.011781757
216	0xbc9dfec4	-0.01928652
217	0x3cf537bf	0.029933808
218	0xbd2b85d0	-0.04187566
219	0x3c21785c	0.009855356
220	0x3d33a2fa	0.0438566
221	0x3d489510	0.048970282
222	0xbd528420	-0.051395535
223	0x3c1ad4fb	0.009450193
224	0xbd2389b0	-0.03992623
225	0x3d104f57	0.035231914
226	0x39449e69	0.00018751029
227	0x3c4467fd	0.011987683
228	0x3d2c0ca2	0.042004235
229	0xbd505330	-0.050860584
230	0xbc743175	-0.01490437
231	0x3cfbf4d3	0.03075639
232	0xbbba5705	-0.005686643
233	0x3d3284e8	0.04358378
234	0x3c87b6f8	0.016566738
235	0x3be7d0dc	0.0070744585
236	0x3ce0dcff	0.02744913
237	0xbcd537a2	-0.026027504
238	0xbc97b228	-0.018517569
239	0x3c225097	0.009906909
240	0x3d3ee0f7	0.046601262
241	0x3ca992b7	0.020699842
242	0x3d090453	0.03345139
243	0x3cfcf97b	0.03088068
244	0x3b941051	0.0045185466
245	0xbbfea11d	-0.007770671
246	0xbcb68108	-0.022278324
247	0xbd19a93f	-0.03751492
248	0x3cb05d7e	0.021528956
249	0x3b802e9c	0.0039118063
250	0xbc546020	-0.012962371
251	0x3c9e7ba1	0.01934606
252	0x3c70d1ef	0.01469849
253	0x3cd4703e	0.025932427
254	0xbd3f16b0	-0.046652496
255	0xbc89e193	-0.016831195
