outputs/ppo_synthetic/epoch-1/score_head.pt (torch, 3453 bytes, 1 tensors)

weight f4 [1, 384]
0.011024575 0.005138607 -0.0019680464 0.037995867 -0.025479948 -0.024659699 0.0424799 -0.01896277
0.023177415 -0.02195283 0.022892274 0.003863867 -0.03177251 -0.0055709975 -0.039339434 -0.041744996
0.01398903 -0.017547414 0.031201225 -0.0144752385 -0.02160001 0.020112569 -0.022421014 0.03516081
0.00684095 -0.008113529 0.017701421 0.01889464 -0.024254132 -0.02325566 0.0140114995 -0.012226253
0.022303648 0.020924147 -0.024833005 -0.01144625 0.03437049 -0.017749693 0.019017054 -0.042509004
0.0013860877 -0.002596472 0.0027888624 0.04404349 0.03698183 0.026044602 0.023490435 -0.019318972
-0.04598024 0.027244875 -0.040413585 0.031730052 0.012784755 0.041133896 0.038090225 0.036140878
-0.010767738 -0.036487494 -0.04427233 0.047592975 -0.018385263 0.03609222 -0.029651688 -0.03328264
0.029328255 -0.019389486 0.0033507352 -0.022665255 -0.008028361 0.008619736 0.041641846 0.027126439
-0.034160472 -0.034601822 -0.047233216 -0.008165973 0.02978551 -0.0065233526 0.0027833008 -0.0013745385
-0.018850138 -0.041622072 0.0057277107 0.02714881 -0.008584893 0.004228113 -0.04124946 0.0031509174
-0.036773056 0.021836868 0.006522782 0.042693157 0.017684698 -0.0030663733 0.017705774 -0.00809536
-0.036463648 0.0422131 -0.003007388 -0.040244758 0.0009993003 -0.029669523 0.03273572 -0.011087309
0.047597572 -0.029426513 0.041522127 -0.041156754 0.019559003 0.039513204 0.039534803 0.0059756967
-0.04429562 0.035504855 -0.016334163 -0.04043424 0.03869232 0.033879235 -0.017036468 -0.042000856
0.011037028 -0.035246234 -0.045385867 -0.009309095 0.019619683 0.011087857 0.04575064 -0.023206793
-0.0006998855 0.01731048 -0.016579619 -0.040904287 0.013756407 0.0077693607 -0.031765115 0.0197405
-0.036658563 -0.04399057 0.0386251 -0.036385853 0.034469742 -0.021759186 -0.050164536 0.028820457
-0.00078364153 -0.010771892 0.014541158 -0.017176518 0.025551653 -0.012160108 -0.002214782 -0.007560758
0.009472691 -0.021118972 0.003206408 -0.03706825 0.0078117303 0.042371064 -0.04632013 -0.03974925
-0.0036366067 -0.013565521 0.04189146 0.008109599 0.032716807 0.043237768 0.010401752 -0.03797771
-0.0043064174 0.029269673 0.020222666 -0.041847344 0.014366679 0.03439075 -0.00552668 0.028102262
-0.01576298 0.009228202 0.031560175 -0.023214271 0.008710258 -0.025555985 0.024747467 0.030618828
-0.05057858 -0.045703866 0.03732285 -0.015940012 0.019662248 0.04930175 0.031911485 0.000735071
0.018095467 0.021705372 0.013721808 -0.030581556 0.01453808 0.0035660516 -0.0013563117 0.030879114
-0.006463645 -0.00013919707 0.026363185 -0.041826926 0.0073629594 0.01357599 0.0050890353 0.04037143
-0.001721128 -0.042356126 -0.020602448 -0.015635284 -0.032349188 0.051224813 0.0320542 -0.011805937
-0.019084614 0.02973932 -0.041559413 0.009702668 0.043615725 0.04885268 -0.05119152 0.009483618
-0.03987221 0.035028733 0.00019498501 0.011843359 0.04177957 -0.050703026 -0.01458556 0.030512143
-0.005371043 0.04338387 0.016349945 0.0068222308 0.027145496 -0.025805907 -0.018286927 0.010122556
0.046384387 0.020488141 0.03342982 0.03090727 0.004245727 -0.007566051 -0.02233795 -0.037242584
0.021292008 0.0041088704 -0.013035065 0.019103855 0.014427214 0.025722696 -0.04645274 -0.017045857
00000000: 6ba0 343c c361 a83b 57fa 00bb 8ea1 1b3d
00000010: 53bb d0bc 2303 cabc 67ff 2d3d d057 9bbc
00000020: 90de bd3c 6cd6 b3bc 9488 bb3c ee38 7d3b
00000030: e423 02bd ea8c b6bb 6322 21bd cdfc 2abd
00000040: 3f32 653c 98bf 8fbc b699 ff3c 8d29 6dbc
00000050: 81f2 b0bc 1dc3 a43c 46ac b7bc c804 103d
00000060: 0c2a e03b 9bee 04bc 9202 913c efc8 9a3c
00000070: 9ab0 c6bc a782 bebc 7d90 653c 9f50 48bc
00000080: 24b6 b63c 1e69 ab3c 966e cbbc 0d89 3bbc
00000090: 12c8 0c3d ce67 91bc a7c9 9b3c ec1d 2ebd
000000a0: 63ad b53a 9229 2abb 59c5 363b f266 343d
000000b0: 427a 173d 7d5b d53c 036f c03c d242 9ebc
000000c0: c755 3cbd a530 df3c b788 25bd 5ff7 013d
000000d0: 2677 513c 047c 283d 7f04 1c3d 7508 143d
000000e0: 2b6b 30bc e973 15bd e756 35bd daf0 423d
000000f0: b19c 96bc 70d5 133d 19e8 f2bc 6153 08bd
00000100: cf41 f03c b3d6 9ebc 0298 5b3b 7cac b9bc
00000110: 6389 03bc cb39 0d3c a490 2a3d 4438 de3c
00000120: daeb 0bbd a4ba 0dbd 9e77 41bd 93ca 05bc
00000130: be00 f43c d9c1 d5bb 0a68 363b dc29 b4ba
00000140: 9b6b 9abc e87b 2abd 85af bb3b 2e67 de3c
00000150: a7a7 0cbc fc8b 8a3b 32f5 28bd 9f7f 4e3b
00000160: 589f 16bd 3be3 b23c 10bd d53b 05df 2e3d
00000170: 80df 903c 35f5 48bb b30b 913c 67a2 04bc
00000180: e85a 15bd a5e7 2c3d 9917 45bb b0d7 24bd
00000190: f4fa 823a 800d f3bc e415 063d 8ba7 35bc
000001a0: acf5 423d df0f f1bc 1b13 2a3d fc93 28bd
000001b0: 343a a03c 99d8 213d 3fef 213d c7cf c33b
000001c0: 536f 35bd 8a6d 113d 39cf 85bc 609e 25bd
000001d0: d77b 1e3d f4c4 0a3d 1090 8bbc 1709 2cbd
000001e0: a7d4 343c 5b5e 10bd 88e6 39bd 2d85 18bc
000001f0: 75b9 a03c d8a9 353c 0665 3b3d 2c1c bebc
00000200: 8578 37ba b5ce 8d3c fbd1 87bc 418b 27bd
00000210: 8e62 613c 1f96 fe3b 231c 02bd d4b6 a13c
00000220: 4a27 16bd 752f 34bd 5a35 1e3d 5509 15bd
00000230: 2530 0d3d 5240 b2bc 5479 4dbd e118 ec3c
00000240: 4b6d 4dba 977c 30bc 0a3e 6e3c c5b5 8cbc
00000250: b351 d13c 313b 47bc e025 11bb 3cc0 f7bb
00000260: 5933 1b3c b201 adbc 9922 523b e1d4 17bd
00000270: 8bf9 ff3b 488d 2d3d 2dba 3dbd 1cd0 22bd
00000280: 2354 6ebb eb41 5ebc 6196 2b3d 20de 043c
00000290: 0f02 063d 161a 313d 1c6c 2a3c 848e 1bbd
000002a0: d91c 8dbb f4c6 ef3c 01aa a53c 1f68 2bbd
000002b0: 3862 6b3c 51dd 0c3d 2719 b5bb b736 e63c
000002c0: 5d21 81bc e231 173c 3e45 013d db2b bebc
000002d0: 78b5 0e3c c95a d1bc 33bb ca3c 56d4 fa3c
000002e0: 7c2b 4fbd fa33 3bbd d8df 183d a194 82bc
000002f0: b912 a13c a2f0 493d 9eb5 023d c8b1 403a
00000300: f23c 943c 77cf b13c 6fd1 603c 2c86 fabc
00000310: 2131 6e3c 6bb4 693b 45c6 b1ba 32f6 fc3c
00000320: fccc d3bb 6ef5 11b9 9bf7 d73c b652 2bbd
00000330: fb44 f13b d46d 5e3c ecc1 a63b 835c 253d
00000340: 7997 e1ba 9e7d 2dbd 77c6 a8bc 9115 80bc
00000350: 9580 04bd 1cd1 513d 444b 033d b06d 41bc
00000360: 5657 9cbc e09f f33c 343a 2abd f0f7 1e3c
00000370: 67a6 323d bf19 483d 33ae 51bd 2d61 1b3c
00000380: 0b51 23bd 4a7a 0f3d e474 4c39 a60a 423c
00000390: 0e21 2b3d faad 4fbd 46f8 6ebc 9af4 f93c
000003a0: 93ff afbb 49b3 313d 52f0 853c 058d df3b
000003b0: 3b60 de3c e966 d3bc 77ce 95bc 14d9 253c
000003c0: 8efd 3d3d bfd6 a73c b5ed 083d 3e31 fd3c
000003d0: bd1f 8b3b a3ec f7bb 14fe b6bc ae8b 18bd
000003e0: 946c ae3c b4a3 863b 0691 55bc b07f 9c3c
000003f0: 1f60 6c3c 67b8 d23c 3a45 3ebd c1a3 8bbc
