outputs/ppo_synthetic_overfit/epoch-8/score_head.pt (torch, 3453 bytes, 1 tensors)

weight f4 [1, 384]
0.009809948 0.004293573 -0.001404101 0.037119757 -0.024506282 -0.02467393 0.04124361 -0.01757081
0.02208733 -0.020820746 0.023969138 0.0031589263 -0.03314484 -0.004069019 -0.037743762 -0.040379204
0.01271243 -0.016849404 0.030090732 -0.014063436 -0.02071825 0.019113876 -0.021501243 0.034015395
0.0059239725 -0.009720802 0.015791923 0.017574288 -0.023119552 -0.025378859 0.012566486 -0.011247226
0.020811103 0.019019013 -0.024647694 -0.009699285 0.03348866 -0.018410597 0.017738251 -0.04130181
0.002283132 -0.002808187 0.0013326153 0.04260983 0.035466373 0.024419088 0.022142408 -0.018134305
-0.0446136 0.02614315 -0.039866347 0.030509163 0.011343843 0.039855838 0.03689766 0.0350099
-0.010376622 -0.035514764 -0.042704232 0.046375033 -0.01724642 0.036669005 -0.02936691 -0.032030508
0.029601663 -0.018511806 0.00223235 -0.022483267 -0.0067849443 0.008359233 0.040162083 0.026066782
-0.03330374 -0.033428844 -0.046460807 -0.009745434 0.028623737 -0.0055861347 0.003998195 -0.0016728578
-0.017403299 -0.040655483 0.005459564 0.027846785 -0.0070487023 0.004503937 -0.04038893 0.0036524497
-0.035187583 0.019593412 0.006169158 0.0413485 0.01765671 -0.0011747511 0.01674251 -0.007467961
-0.034280717 0.04129138 -0.0048358142 -0.03887494 -2.154309e-05 -0.029326318 0.032785423 -0.011747777
0.046221867 -0.028515348 0.040231537 -0.04054581 0.02100004 0.03706853 0.03792225 0.0042411485
-0.042917687 0.033252843 -0.015042726 -0.038995262 0.03948523 0.03282147 -0.015509776 -0.040818743
0.011802478 -0.034674626 -0.04426497 -0.0076826815 0.018940084 0.0099170515 0.044138063 -0.024262432
0.00039828746 0.018241948 -0.01590097 -0.039523788 0.0145820035 0.00571602 -0.031670865 0.01843085
-0.03640796 -0.043555498 0.0386791 -0.035175234 0.03339841 -0.020694464 -0.049059108 0.027526718
-0.00018626732 -0.008819565 0.015202942 -0.015940653 0.024492852 -0.013479003 -0.0027399252 -0.0060835914
0.009151318 -0.019734621 0.0034976183 -0.03620459 0.009104409 0.0406271 -0.044572625 -0.038703937
-0.004932034 -0.012314757 0.04058209 0.008716088 0.030324008 0.041383028 0.011388147 -0.03655983
-0.0035620811 0.028814036 0.01908401 -0.040476356 0.015546989 0.033204917 -0.003980025 0.026862064
-0.014456645 0.007414718 0.030649705 -0.021768408 0.006988932 -0.025016306 0.024082106 0.028519917
-0.05044091 -0.044108003 0.036586937 -0.01654104 0.019140076 0.047929004 0.030629598 0.0021111504
0.017062353 0.020609405 0.011967058 -0.029786063 0.013469634 0.002929687 -0.001175236 0.030161906
-0.0060242265 0.0009706447 0.02535856 -0.041798823 0.0071640755 0.011982895 0.0043403604 0.039392352
-0.0013975264 -0.041117106 -0.019187668 -0.014545357 -0.031782568 0.049874466 0.032005604 -0.01198634
-0.01796801 0.028186943 -0.039758712 0.009870647 0.042320725 0.04822673 -0.050368402 0.010085747
-0.04127801 0.034190755 -0.000697979 0.01194695 0.040659405 -0.049782872 -0.013162292 0.029285936
-0.0031213327 0.04205515 0.0150508005 0.0061092963 0.02604766 -0.024328053 -0.016735844 0.011139232
0.04521827 0.01951629 0.034485545 0.032051925 0.0025831002 -0.0062147663 -0.023133753 -0.035992373
0.020683262 0.0049647703 -0.012983114 0.017427785 0.012768848 0.023862451 -0.045531075 -0.01869879
00000000: e7b9 203c 1ab1 8c3b d009 b8ba e30a 183d
00000010: 66c1 c8bc fb20 cabc 0fef 283d a9f0 8fbc
00000020: 7df0 b43c 4590 aabc ed5a c43c fd05 4f3b
00000030: e2c2 07bd 6855 85bb 3499 1abd aa64 25bd
00000040: cc47 503c c307 8abc d780 f63c 536a 66bc
00000050: 52b9 a9bc b494 9c3c 6023 b0bc ba53 0b3d
00000060: e21d c23b 0044 1fbc 105e 813c f4f7 8f3c
00000070: 3765 bdbc 53e7 cfbc aae3 4d3c 4946 38bc
00000080: 0c7c aa3c c3cd 9b3c f6e9 c9bc c0e9 1ebc
00000090: 682b 093d d2d1 96bc cf4f 913c 162c 29bd
000000a0: 99a0 153b 8f09 38bb 26ab ae3a a587 2e3d
000000b0: 3045 113d 8a0a c83c ff63 b53c 658e 94bc
000000c0: c0bc 36bd 292a d63c e54a 23bd 5aee f93c
000000d0: 87db 393c e03f 233d 0022 173d 8a66 0f3d
000000e0: b502 2abc ee77 11bd a2ea 2ebd bff3 3d3d
000000f0: 5d48 8dbc 3d32 163d e092 f0bc 6c32 03bd
00000100: 307f f23c 12a6 97bc 9e4c 123b d42e b8bc
00000110: 3d54 debb 2af5 083c ff80 243d 018a d53c
00000120: 8169 08bd afec 08bd b04d 3ebd 50ab 1fbc
00000130: 547c ea3c e50b b7bb 4a03 833b cb43 dbba
00000140: 5d91 8ebc 5d86 26bd 24e6 b23b f11e e43c
00000150: cdf8 e6bb c395 933b dd6e 25bd f05d 6f3b
00000160: db20 10bd 5d82 a03c a626 ca3b 0b5d 293d
00000170: cea4 903c 1bfa 99ba 9727 893c ccb5 f4bb
00000180: f069 0cbd 2621 293d c075 9ebb 543b 1fbd
00000190: 6fb7 b4b7 bf3d f0bc 024a 063d c079 40bc
000001a0: 2453 3d3d 0599 e9bc d3c9 243d 5d13 26bd
000001b0: 4708 ac3c 2cd5 173d 5c54 1b3d 55f9 8a3b
000001c0: 75ca 2fbd 2234 083d c475 76bc 7fb9 1fbd
000001d0: 44bb 213d ce6f 063d b71c 7ebc 8e31 27bd
000001e0: 2e5f 413c fb06 0ebd 2f4f 35bd 01bf fbbb
000001f0: 3c28 9b3c 217b 223c 1dca 343d 02c2 c6bc
00000200: 3dd1 d039 2370 953c c042 82bc b2e3 21bd
00000210: 5be9 6e3c 734d bb3b 4fb9 01bd 4bfc 963c
00000220: 8320 15bd 4067 32bd fa6d 1e3d e813 10bd
00000230: c5cc 083d 7087 a9bc 34f2 48bd b67f e13c
00000240: c150 43b9 f07f 10bc c315 793c f995 82bc
00000250: 3ca5 c83c 09d7 5cbc 5190 33bb dd58 c7bb
00000260: 69ef 153c 80aa a1bc 4c38 653b 444b 14bd
00000270: a92a 153c 9a68 263d c991 36bd 0588 1ebd
00000280: e69c a1bb d6c3 49bc 6839 263d eccd 0e3c
00000290: 0e6a f83c 4081 293d 5a95 3a3c c3bf 15bd
000002a0: ce71 69bb 6a0b ec3c 1256 9c3c 89ca 25bd
000002b0: ccb8 7e3c e101 083d df6a 82bb d50d dc3c
000002c0: 90db 6cbc 2af7 f23b 1715 fb3c a953 b2bc
000002d0: 6903 e53b ffee ccbc d647 c53c 9aa2 e93c
000002e0: 219b 4ebd 98aa 34bd 2fdc 153d 1381 87bc
000002f0: a6cb 9c3c 3451 443d ecea fa3c 3a5b 0a3b
00000300: 59c6 8b3c 0ed5 a83c 7b11 443c e701 f4bc
00000310: bdaf 5c3c feff 3f3b 600a 9aba 1a16 f73c
00000320: e066 c5bb dd72 7e3a c1bc cf3c 3e35 2bbd
00000330: 9fc0 ea3b e853 443c 9539 8e3b e059 213d
00000340: 342d b7ba 696a 28bd 752f 9dbc a64f 6ebc
00000350: 702e 02bd 2b49 4c3d 4f18 033d 5b62 44bc
00000360: a631 93bc 4ee8 e63c 08da 22bd 7fb8 213c
00000370: 7f58 2d3d 6489 453d 194f 4ebd b03e 253c
00000380: 2113 29bd 9b0b 0c3d 94f8 36ba 24bd 433c
00000390: 7a8a 263d 20e9 4bbd a7a6 57bc 0fe9 ef3c
000003a0: 468f 4cbb 0542 2c3d a297 763c 7e30 c83b
000003b0: e761 d53c a04b c7bc 9c19 89bc 5381 363c
000003c0: cb36 393d a0e0 9f3c b740 0d3d e148 033d
000003d0: 3b49 293b 3da5 cbbb ff82 bdbc bd6c 13bd
000003e0: f26f a93c 83af a23b 21b7 54bc b7c4 8e3c
000003f0: 6e34 513c 307b c33c cb7e 3abd 342e 99bc
