outputs/ppo_synthetic_v2/epoch-3/score_head.pt (torch, 3453 bytes, 1 tensors)

weight f4 [1, 384]
0	0x3c3699a3	0.011145028
1	0x3bad767e	0.0052936664
2	0xbb0db318	-0.002162164
3	0x3d1c37b5	0.038139064
4	0xbcd26557	-0.025683088
5	0xbccb022b	-0.024781307
6	0x3d2e9fea	0.042632975
7	0xbc9c6552	-0.019091282
8	0x3cbf3277	0.023339493
9	0xbcb52998	-0.02211456
10	0x3cba710e	0.022758987
11	0x3b7d9aae	0.0038696933
12	0xbd017f61	-0.03161562
13	0xbbbded86	-0.0057961373
14	0xbd21f35c	-0.039538726
15	0xbd2b98a0	-0.0418936
16	0x3c6814e5	0.014165138
17	0xbc9123d3	-0.017717278
18	0x3d007a04	0.031366363
19	0xbc6e8040	-0.014556944
20	0xbcb1fd30	-0.021727175
21	0x3ca5f1c9	0.020256894
22	0xbcb96cc8	-0.022634879
23	0x3d10c1a2	0.035340913
24	0x3be4d79b	0.00698371
25	0xbc032a86	-0.008005744
26	0x3c92c031	0.01791391
27	0x3c9c4aa5	0.019078562
28	0xbcc7a0a1	-0.024368586
29	0xbcbd0cb0	-0.023077339
30	0x3c689ce6	0.014197564
31	0xbc48446d	-0.012223345
32	0x3cb81cd3	0.022474682
33	0x3cad66a3	0.021167105
34	0xbcccb75f	-0.024989782
35	0xbc3e90c9	-0.011631199
36	0x3d0d8eb5	0.034559924
37	0xbc9095ed	-0.017649615
38	0x3c9d04f8	0.019167408
39	0xbd2ec5d7	-0.042669144
40	0x3aabe57e	0.0013114659
41	0xbb2bee49	-0.0026234558
42	0x3b43a840	0.0029854923
43	0x3d352e3f	0.044233557
44	0x3d182fdf	0.03715503
45	0x3cd704e5	0.026247451
46	0x3cc1d5ec	0.023661576
47	0xbc9f6048	-0.01945509
48	0xbd3d25fe	-0.04617881
49	0x3ce07bb1	0.02740273
50	0xbd25c671	-0.04047245
51	0x3d02ac12	0.03190238
52	0x3c53df28	0.012931623
53	0x3d2926d6	0.041296802
54	0x3d1ca2ce	0.0382412
55	0x3d14a26b	0.036287706
56	0xbc30080e	-0.010744108
57	0xbd15ce1b	-0.03657351
58	0xbd3622d7	-0.04446682
59	0x3d43a38b	0.04776339
60	0xbc97f8ba	-0.01855122
61	0x3d1438bf	0.03618693
62	0xbcf33f65	-0.029693315
63	0xbd08e957	-0.033425655
64	0x3cf0e210	0.02940467
65	0xbca03749	-0.019557612
66	0x3b624990	0.003452871
67	0xbcbb0695	-0.022830287
68	0xbc05b324	-0.008160386
69	0x3c0e8237	0.008698038
70	0x3d2b701e	0.04185497
71	0x3cdf90e5	0.02729077
72	0xbd0c8edd	-0.034315933
73	0xbd0e729f	-0.03477728
74	0xbd4228d6	-0.047402225
75	0xbc0329e7	-0.008005596
76	0x3cf52016	0.029922526
77	0xbbdae475	-0.006680066
78	0x3b2b108f	0.00261024
79	0xbaa9104a	-0.0012898531
80	0xbc9b8837	-0.01898585
81	0xbd2b38ec	-0.04180233
82	0x3bbce991	0.005765148
83	0x3cde352d	0.027124966
84	0xbc104ffe	-0.008808134
85	0x3b886ba3	0.004163222
86	0xbd299a47	-0.041406896
87	0x3b4714d7	0.0030377412
88	0xbd179abc	-0.0370128
89	0x3cb4693d	0.022022838
90	0x3bd92866	0.0066271303
91	0x3d2fad6b	0.042889994
92	0x3c908d78	0.017645583
93	0xbb574f71	-0.0032853747
94	0x3c91b197	0.017784877
95	0xbc04fee1	-0.0081174085
96	0xbd160d43	-0.03663374
97	0x3d2d16cd	0.042258073
98	0xbb39618b	-0.00282869
99	0xbd2553a1	-0.040362958
100	0x3a94dd02	0.0011357369
101	0xbcf35a0c	-0.029706024
102	0x3d064884	0.032784
103	0xbc336729	-0.010949888
104	0x3d43ab4d	0.047770787
105	0xbcf215b9	-0.029551374
106	0x3d2a9fe8	0.041656405
107	0xbd29060e	-0.04126554
108	0x3c9e54ec	0.019327603
109	0x3d22eb6d	0.0397753
110	0x3d22a742	0.03971029
111	0x3bc7142a	0.006075402
112	0xbd36520b	-0.044511836
113	0x3d12187e	0.03566789
114	0xbc870162	-0.016480152
115	0xbd264427	-0.04059234
116	0x3d1ec9fd	0.03876685
117	0x3d0b6989	0.034036193
118	0xbc8d4387	-0.017244114
119	0xbd2ccabf	-0.04218554
120	0x3c322d10	0.010875002
121	0xbd10b75c	-0.035331115
122	0xbd3a79f2	-0.045526452
123	0xbc1af316	-0.00945737
124	0x3ca108d0	0.019657522
125	0x3c388f11	0.011264578
126	0x3d3c4427	0.045963433
127	0xbcbe978c	-0.023265623
128	0xba5f7ad6	-0.0008525079
129	0x3c8d0f11	0.017219098
130	0xbc87e372	-0.016587947
131	0xbd28588d	-0.041100074
132	0x3c603183	0.0136836795
133	0x3c03a03f	0.008033811
134	0xbd0220f7	-0.03176972
135	0x3ca357c5	0.019939313
136	0xbd16a4ac	-0.036778137
137	0xbd35025f	-0.044191714
138	0x3d1ec4d3	0.038761925
139	0xbd15d9ba	-0.036584593
140	0x3d0de9a4	0.034646645
141	0xbcb3b1e4	-0.02193541
142	0xbd4e2d6e	-0.050336294
143	0x3ced8317	0.028993173
144	0xba60f657	-0.00085816294
145	0xbc32ca21	-0.010912449
146	0x3c6f32c9	0.0145995105
147	0xbc8e4ba1	-0.017370047
148	0x3cd2a95a	0.025715519
149	0xbc44b341	-0.012005628
150	0xbb0bb3ec	-0.0021316959
151	0xbbfc048e	-0.0076909726
152	0x3c1aef6f	0.0094564995
153	0xbcae2950	-0.021259934
154	0x3b4cd718	0.0031256136
155	0xbd187700	-0.037222862
156	0x3bfb23c4	0.0076641757
157	0x3d2e4bdd	0.042552818
158	0xbd3e5129	-0.04646412
159	0xbd23325b	-0.039842945
160	0xbb66a6fa	-0.003519474
161	0xbc6020f7	-0.013679734
162	0x3d2c2e8c	0.042036578
163	0x3c06e8d4	0.0082342215
164	0x3d073cde	0.03301703
165	0x3d31e9b7	0.04343578
166	0x3c2a727d	0.010403273
167	0xbd1c5391	-0.038165633
168	0xbb8d2595	-0.0043074586
169	0x3cf1629f	0.029465972
170	0x3ca6685d	0.020313436
171	0xbd2c3281	-0.04204035
172	0x3c6889b5	0.014192988
173	0x3d0d5fad	0.03451507
174	0xbbbac659	-0.0056999144
175	0x3ce7580b	0.028240224
176	0xbc82813c	-0.015930764
177	0x3c1a9e4b	0.009437154
178	0x3d01cbcc	0.031688496
179	0xbcbfb8d9	-0.023403572
180	0x3c11a602	0.008889677
181	0xbcd271fa	-0.025689114
182	0x3ccb8fe8	0.024848893
183	0x3cfc5c76	0.030805808
184	0xbd4f962b	-0.05068032
185	0xbd3c0c4c	-0.045910165
186	0x3d1975ad	0.03746574
187	0xbc81761f	-0.015803395
188	0x3ca28b44	0.019841798
189	0x3d4a9030	0.049453914
190	0x3d0376f6	0.032095872
191	0x3a276bfd	0.0006386636
192	0x3c95e471	0.018297406
193	0x3cb2b2b8	0.021813735
194	0x3c646dbe	0.01394218
195	0xbcfbb47e	-0.030725714
196	0x3c708db6	0.014682224
197	0x3b70d8ca	0.003675031
198	0xbaae3bb8	-0.0013292944
199	0x3cfd96e6	0.030955743
200	0xbbd49375	-0.006487305
201	0xb939dbf4	-0.00017724914
202	0x3cd8cca9	0.026464777
203	0xbd2c083e	-0.042000048
204	0x3bef948e	0.0073114103
205	0x3c626a27	0.013819254
206	0x3baaae7f	0.00520879
207	0x3d25eeb3	0.040510844
208	0xbaeada1d	-0.0017917786
209	0xbd2e267c	-0.04251717
210	0xbcaa62be	-0.020799037
211	0xbc81883c	-0.015812032
212	0xbd04f5c0	-0.032460928
213	0x3d5285da	0.051397182
214	0x3d02843a	0.031864382
215	0xbc414feb	-0.011798839
216	0xbc9d79ca	-0.019223113
217	0x3cf4be28	0.02987583
218	0xbd2b498a	-0.04181818
219	0x3c20a5f0	0.009805188
220	0x3d335df0	0.043790758
221	0x3d485d18	0.048916906
222	0xbd524736	-0.051337443
223	0x3c1b21cd	0.009468508
224	0xbd236f31	-0.039900962
225	0x3d1010e8	0.035172373
226	0x39410f73	0.0001841167
227	0x3c447aa1	0.011992128
228	0x3d2bcd1c	0.041943654
229	0xbd5016e8	-0.050803095
230	0xbc73069e	-0.014833121
231	0x3cfb6cc3	0.03069151
232	0xbbb7f086	-0.0056133894
233	0x3d32476f	0.043525156
234	0x3c8739bf	0.016507028
235	0x3be5abd2	0.007009008
236	0x3ce0493b	0.027378669
237	0xbcd4b2bd	-0.025964135
238	0xbc973608	-0.018458381
239	0x3c2341f9	0.00996446
240	0x3d3e9d65	0.046536822
241	0x3ca91109	0.020638006
242	0x3d08dd34	0.03341408
243	0x3cfd1d83	0.030897861
244	0x3b91d656	0.0044505997
245	0xbbfc9df6	-0.00770926
246	0xbcb6bad7	-0.022305889
247	0xbd195dc9	-0.037442956
248	0x3cafd757	0.021464987
249	0x3b8215d5	0.0039698877
250	0xbc54c2d0	-0.0129859
251	0x3c9df494	0.019281663
252	0x3c6fabb2	0.014628338
253	0x3cd3ecc1	0.025869729
254	0xbd3ed79c	-0.04659234
255	0xbc8a4112	-0.016876731
