outputs/ppo_synthetic_v2/epoch-2/score_head.pt (torch, 3453 bytes, 1 tensors)

weight f4 [1, 384]
0	0x3c36ee1a	0.011165166
1	0x3bae1b58	0.005313318
2	0xbb0eeb8d	-0.002180788
3	0x3d1c4d8b	0.03815989
4	0xbcd28dc2	-0.025702361
5	0xbccb0804	-0.024784096
6	0x3d2eb52b	0.042653244
7	0xbc9c8c49	-0.019109862
8	0x3cbf5c57	0.02335946
9	0xbcb55462	-0.022134963
10	0x3cba46d4	0.022738852
11	0x3b7e440c	0.0038797883
12	0xbd016c1e	-0.03159725
13	0xbbbe89a8	-0.0058147497
14	0xbd22096b	-0.039559763
15	0xbd2bada3	-0.04191364
16	0x3c685d71	0.014182434
17	0xbc914895	-0.017734805
18	0x3d008f2e	0.031386547
19	0xbc6ec50f	-0.01457335
20	0xbcb225c8	-0.021746531
21	0x3ca61c7d	0.020277256
22	0xbcb99543	-0.022654181
23	0x3d10d6fc	0.035361275
24	0x3be55aef	0.0069993655
25	0xbc0300b4	-0.007995773
26	0x3c92e9c7	0.01793374
27	0x3c9c764d	0.019099379
28	0xbcc7ccc9	-0.024389641
29	0xbcbce69f	-0.023059187
30	0x3c68f5aa	0.014218727
31	0xbc485c9d	-0.012229112
32	0x3cb847ec	0.022495233
33	0x3cad8eeb	0.021186313
34	0xbccce12f	-0.02500972
35	0xbc3ee850	-0.011652067
36	0x3d0da360	0.034579635
37	0xbc906ad0	-0.017629057
38	0x3c9d31b3	0.019188737
39	0xbd2edbd4	-0.042690113
40	0x3aaab90f	0.0013025122
41	0xbb2c81c7	-0.002632247
42	0x3b45080e	0.0030064615
43	0x3d35439c	0.04425393
44	0x3d184442	0.03717447
45	0x3cd730d8	0.026268408
46	0x3cc2014e	0.023682263
47	0xbc9f7f8c	-0.019469999
48	0xbd3d3933	-0.046197128
49	0x3ce0a27d	0.02742123
50	0xbd25ccc8	-0.040478498
51	0x3d02c117	0.031922426
52	0x3c54255a	0.012948358
53	0x3d293c72	0.04131741
54	0x3d1cb76b	0.03826086
55	0x3d14b737	0.03630754
56	0xbc2fccb0	-0.010729954
57	0xbd15e19c	-0.03659211
58	0xbd3638b1	-0.04448766
59	0x3d43b7de	0.04778277
60	0xbc982329	-0.018571453
61	0x3d14486c	0.03620188
62	0xbcf35681	-0.029704334
63	0xbd08fc06	-0.033443473
64	0x3cf0ebbb	0.02940928
65	0xbca05f93	-0.019576823
66	0x3b635f88	0.0034694392
67	0xbcbb2ab8	-0.022847518
68	0xbc0607fa	-0.008180613
69	0x3c0eaf7b	0.00870883
70	0x3d2b84cf	0.041874703
71	0x3cdfbcbe	0.027311679
72	0xbd0ca3b6	-0.034335814
73	0xbd0e86ef	-0.03479665
74	0xbd423ea8	-0.047423035
75	0xbc02d60e	-0.007985605
76	0x3cf54a85	0.02994276
77	0xbbdb687e	-0.006695806
78	0x3b29aaec	0.002588923
79	0xbaa69d4b	-0.0012711672
80	0xbc9bb3cc	-0.019006632
81	0xbd2b4bfe	-0.04182052
82	0x3bbd11aa	0.005769928
83	0x3cde2973	0.027119374
84	0xbc109a7c	-0.008825894
85	0x3b87d79f	0.004145577
86	0xbd29af7f	-0.04142713
87	0x3b45de94	0.0030192481
88	0xbd17b014	-0.037033156
89	0x3cb48f10	0.022040874
90	0x3bd9c889	0.00664622
91	0x3d2fc27d	0.042910088
92	0x3c9086a8	0.017642334
93	0xbb58a302	-0.0033056145
94	0x3c91d682	0.01780248
95	0xbc054e6d	-0.008136374
96	0xbd1622f5	-0.03665443
97	0x3d2d2418	0.04227075
98	0xbb380094	-0.0028076516
99	0xbd2568db	-0.0403832
100	0x3a97a395	0.0011569137
101	0xbcf36a6a	-0.029713828
102	0x3d065258	0.032793373
103	0xbc331520	-0.01093033
104	0x3d43bff8	0.047790498
105	0xbcf2374d	-0.029567385
106	0x3d2ab4ba	0.04167626
107	0xbd2919f3	-0.041284513
108	0x3c9e290a	0.019306678
109	0x3d230110	0.039795935
110	0x3d22bd20	0.039731145
111	0x3bc75bd3	0.0060839443
112	0xbd3666e8	-0.044531733
113	0x3d122cc8	0.035687238
114	0xbc8729d0	-0.01649943
115	0xbd26599b	-0.0406128
116	0x3d1ed8c2	0.038780935
117	0x3d0b7e8d	0.034056235
118	0xbc8d6ee6	-0.017264795
119	0xbd2ce001	-0.042205814
120	0x3c31d84d	0.010854793
121	0xbd10c56f	-0.035344537
122	0xbd3a86c5	-0.045538682
123	0xbc1b348d	-0.009472978
124	0x3ca11fea	0.019668538
125	0x3c38ea66	0.011286354
126	0x3d3c5a0a	0.045984305
127	0xbcbe96f7	-0.023265345
128	0xba650e1d	-0.000873776
129	0x3c8d1303	0.01722098
130	0xbc87e2a0	-0.016587555
131	0xbd286c9e	-0.04111921
132	0x3c5ffe48	0.013671465
133	0x3c03f574	0.008054126
134	0xbd023249	-0.031786237
135	0x3ca3814a	0.01995911
136	0xbd16b7c8	-0.03679636
137	0xbd35132a	-0.04420773
138	0x3d1ed87d	0.038780678
139	0xbd15efe1	-0.03660572
140	0x3d0dff4a	0.03466729
141	0xbcb3dcce	-0.021955874
142	0xbd4e434d	-0.05035715
143	0x3cedadc2	0.029013518
144	0xba639330	-0.00086812954
145	0xbc331c4f	-0.010932042
146	0x3c6f5a82	0.014608981
147	0xbc8e7525	-0.017389843
148	0x3cd2cd46	0.025732648
149	0xbc445ea7	-0.0119854575
150	0xbb0b5a3a	-0.0021263496
151	0xbbfc99cf	-0.007708765
152	0x3c1ab6fe	0.009443043
153	0xbcae5206	-0.021279346
154	0x3b4d102f	0.0031290164
155	0xbd188b71	-0.037242357
156	0x3bfa921a	0.007646811
157	0x3d2e5eb4	0.042570785
158	0xbd3e6701	-0.04648495
159	0xbd23469a	-0.039862253
160	0xbb6587df	-0.0035023612
161	0xbc604e8d	-0.013690603
162	0x3d2c4362	0.04205645
163	0x3c0731a6	0.008251583
164	0x3d07526c	0.033037588
165	0x3d31ff84	0.04345657
166	0x3c2aa1a2	0.010414513
167	0xbd1c6732	-0.038184352
168	0xbb8d57b4	-0.0043134335
169	0x3cf182af	0.02948126
170	0x3ca6911b	0.020332864
171	0xbd2c4747	-0.042060163
172	0x3c684296	0.014176032
173	0x3d0d74f3	0.03453536
174	0xbbbb6b5c	-0.0057195853
175	0x3ce78047	0.02825941
176	0xbc82ad3c	-0.015951745
177	0x3c1aee1e	0.009456186
178	0x3d01df1f	0.031706925
179	0xbcbfe400	-0.023424149
180	0x3c11fb9c	0.008910086
181	0xbcd29274	-0.0257046
182	0x3ccbb476	0.024866324
183	0x3cfc86ff	0.03082609
184	0xbd4fa670	-0.050695837
185	0xbd3c2091	-0.045929495
186	0x3d198a7e	0.037485592
187	0xbc816ae0	-0.015798032
188	0x3ca2afd0	0.019859225
189	0x3d4aa577	0.049474206
190	0x3d038a1e	0.03211414
191	0x3a22c8e1	0.0006209743
192	0x3c960d1e	0.018316802
193	0x3cb2dcf2	0.02183387
194	0x3c64c681	0.013963343
195	0xbcfbdc34	-0.03074465
196	0x3c70df62	0.014701696
197	0x3b7218d1	0.0036941061
198	0xbaaf6922	-0.0013382772
199	0x3cfdbfc9	0.03097524
200	0xbbd50490	-0.006500788
201	0xb93c1a45	-0.00017938863
202	0x3cd8f6be	0.026484843
203	0xbd2c192c	-0.042016193
204	0x3bef1c17	0.0072970497
205	0x3c62b78f	0.013837709
206	0x3bab5431	0.0052285423
207	0x3d260380	0.04053068
208	0xbaed5dfc	-0.0018109675
209	0xbd2e3c7e	-0.04253816
210	0xbcaa8d99	-0.020819472
211	0xbc81ae28	-0.015830114
212	0xbd05099b	-0.032479864
213	0x3d529a70	0.051416814
214	0x3d0274be	0.031849615
215	0xbc4134d2	-0.0117923785
216	0xbc9da3b1	-0.019243093
217	0x3cf4e4e3	0.029894298
218	0xbd2b55cf	-0.04182988
219	0x3c20f775	0.009824623
220	0x3d337357	0.04381117
221	0x3d487224	0.048936978
222	0xbd52597b	-0.051354866
223	0x3c1af4c0	0.009457767
224	0xbd2376d8	-0.03990826
225	0x3d1022aa	0.03518931
226	0x394832ae	0.00019092366
227	0x3c445394	0.011982817
228	0x3d2be1b4	0.041963294
229	0xbd502bb0	-0.050822914
230	0xbc7358e8	-0.01485274
231	0x3cfb96ed	0.030711615
232	0xbbb8960f	-0.0056331228
233	0x3d325af1	0.04354376
234	0x3c876264	0.016526408
235	0x3be656f4	0.0070294086
236	0x3ce06c71	0.027395459
237	0xbcd4dbe6	-0.025983762
238	0xbc975b19	-0.018476056
239	0x3c22febc	0.009948429
240	0x3d3eb32a	0.046557583
241	0x3ca93d2f	0.020659057
242	0x3d08e81f	0.033424493
243	0x3cfd0e02	0.030890469
244	0x3b927e18	0.004470598
245	0xbbfd45d4	-0.0077292714
246	0xbcb6ab2f	-0.022298424
247	0xbd197374	-0.03746362
248	0x3cafffca	0.021484274
249	0x3b81843e	0.003952532
250	0xbc549a80	-0.012976289
251	0x3c9e1b99	0.019300269
252	0x3c7000b1	0.014648602
253	0x3cd417a4	0.025890179
254	0xbd3eec69	-0.046612177
255	0xbc8a2ea2	-0.01686794
