outputs/ppo/epoch-1/score_head.pt (torch, 3453 bytes, 1 tensors)

weight f4 [1, 384]
000000 67 7e 13 3d bd b8 84 3c e9 fe 2f 3d 04 ed ac 3b
       0.03600922 0.016201371 0.04296771 0.005277278
000010 ce 16 96 bc 56 97 e0 3a 41 e0 94 bb bc f3 11 bc
       -0.018321421 0.0017134945 -0.0045433347 -0.008908208
000020 15 f2 36 bd 1a 48 2d bd 58 be 16 3d ad 61 16 bc
       -0.04466446 -0.04230509 0.03680262 -0.009178561
000030 7f 75 0a 3d 80 c9 48 bc 05 74 43 bd 29 2e a2 3c
       0.03380346 -0.012255073 -0.047718067 0.019797402
000040 a5 02 a8 bc e5 7c a4 bc 73 8d 8a bc 9f 2e c9 3c
       -0.020509074 -0.020079086 -0.016913151 0.024558363
000050 6d 9f 3e 3c e4 87 1f bb 86 65 81 bc 09 48 ac bc
       0.01163469 -0.0024342472 -0.01579548 -0.021030443
000060 d0 99 2b 3d 81 fd 40 bd 28 2e e5 b9 a7 06 35 3c
       0.041894734 -0.04711676 -0.00043712673 0.011048949
000070 a6 2c 10 bd 49 bb 81 bc aa d1 08 3d f0 a3 26 bd
       -0.03519883 -0.015836375 0.033403076 -0.040683687
000080 2f 88 1e bd 14 fd 1d bc 4d 94 35 bd 30 0e 46 3d
       -0.038704094 -0.009642858 -0.044330884 0.048353374
000090 de ad fc bc a5 86 41 3b 52 86 06 bd 5b 97 f9 3c
       -0.030844625 0.0029529717 -0.03284294 0.03046768
0000a0 bf 78 3a 3d dd 2a 3e 3d ed cd 23 3b af 64 97 bc
       0.04552531 0.046427596 0.0024994568 -0.018480627
0000b0 3d 91 96 b7 75 f6 99 bc 87 f6 0a bd bb a8 29 3d
       -1.7949025e-05 -0.018794278 -0.033926513 0.04142068
0000c0 c5 c5 3e bd 18 91 51 bd 4e df 35 bd a0 bf 36 3d
       -0.046575326 -0.051163763 -0.044402413 0.04461634
0000d0 2f 54 8b bb df cd ca bc 14 f4 04 3c 8f bd 8f bc
       -0.004251979 -0.02475637 0.008114833 -0.017546443
0000e0 fe cd 5b 3c 77 6a d7 3b 46 db 14 bc fb d0 93 bb
       0.013415812 0.006573971 -0.009085482 -0.0045109964
0000f0 83 12 20 3c 72 c7 e8 bc e1 f4 1d bd 79 e2 37 bd
       0.009770039 -0.028415415 -0.038563613 -0.044893716
000100 89 d3 14 3d 7f 3a 07 bd 89 b2 51 3d 75 24 b2 3b
       0.03633455 -0.03301477 0.051195655 0.005436475
000110 ec c3 36 bd 74 1b 33 3d 33 7a 5e 3c 09 97 a6 3c
       -0.04462044 0.043727353 0.013578939 0.020335691
000120 fd 85 2b 3d 53 49 2b 3d 60 11 83 bc d5 30 98 3b
       0.041875828 0.041817974 -0.015999496 0.004644493
000130 84 cc ea bc 73 1b 9a bc 4f 51 6a bc 44 13 b0 bc
       -0.028661974 -0.018811917 -0.014301612 -0.021493562
000140 a4 6d 9b 3c bf 4b 12 bd e7 e2 11 bd b3 0f 21 3d
       0.01897318 -0.03571677 -0.03561678 0.039321613
000150 95 65 30 3d bc 21 14 bd f8 f8 1e 3d b9 44 2d bd
       0.043065626 -0.036164984 0.038811654 -0.042301867
000160 77 99 07 3d 76 07 01 3d 5a c8 33 3d 5f 8e 19 3d
       0.03310534 0.031501256 0.043892242 0.03748929
000170 af 55 d6 bb 44 f2 0b 3c c1 a0 46 3d 8e 46 28 bd
       -0.006540976 0.008541647 0.04849315 -0.04108291
000180 85 7f 4e bd fb 0d 7c bc 36 d4 05 bd 39 c7 5b bc
       -0.05041458 -0.015384193 -0.032673083 -0.013414198
000190 bb 71 f2 39 a8 2a cb bc dd fb 01 bd 6e 3c ac 3c
       0.00046242573 -0.024800614 -0.031734336 0.021024909
0001a0 f3 81 d2 3c b1 98 d4 bc fa b8 b8 bc 97 35 61 3b
       0.02569673 -0.025951715 -0.022549141 0.0034364217
0001b0 07 5e 4f bc d1 ea 0d bd bd 8a 36 3d c4 96 09 3d
       -0.012656695 -0.034647767 0.044565905 0.033591047
0001c0 bb 55 f2 3b bb 26 5c 3c 9b ca 1f 3d fe 43 f8 3b
       0.007395474 0.013436968 0.03901158 0.0075764647
0001d0 7d 68 ba 3c 36 15 13 3d d7 07 af bc 20 ba bf bc
       0.022754902 0.0359089 -0.021366043 -0.023404181
0001e0 2b a9 b9 3c b9 6b 4a bc 67 5a 8e 3c 05 ea ae bc
       0.022663673 -0.012354785 0.017377092 -0.021351824
0001f0 99 f8 17 bd 00 df 45 3d 72 67 2c 3d 4d 8d 0b bd
       -0.037102316 0.048308372 0.04209084 -0.0340703
000200 e4 a1 c7 3c fe 00 05 3d 64 2d ae 3c 8a aa 44 3c
       0.024369188 0.03247165 0.021261878 0.01200355
000210 36 6c 92 3a 59 fa bc 3c 20 9d 20 bc c2 ea 39 3d
       0.0011171165 0.023068594 -0.0098030865 0.045389898
000220 e9 73 ff bc bc 18 6e bc 33 de 2a bc 6e 98 ca 3c
       -0.0311832 -0.014532264 -0.010428953 0.024730887
000230 ee 19 5d 3c 74 8f 1b 3c 68 68 95 3c 71 af 07 3d
       0.013494952 0.009494651 0.018238261 0.0331263
000240 14 93 d0 bc 3c 7a eb bc d7 ef 59 3b 52 ad 4a 3d
       -0.025460757 -0.02874481 0.0033254528 0.049481697
000250 71 bd 2c bd 8b be 0f bd eb 68 63 bb c2 10 20 3d
       -0.042172853 -0.035093825 -0.0034699987 0.03907848
000260 cf a3 17 bd 4b 50 18 3d e8 ef 26 3d a6 18 16 bb
       -0.037021454 0.03718595 0.040756136 -0.0022902875
000270 02 de 86 bb 83 3e db 3c 15 53 88 bc 01 e8 a7 ba
       -0.004115821 0.026763206 -0.01664118 -0.0012810231
000280 b0 7f 1a 3d a0 46 82 bb fc 5d 1a bb 82 bd 9d 3b
       0.03771943 -0.0039757043 -0.0023554554 0.004813851
000290 26 f6 9c 3b 93 5f 39 3d 0c 55 cf bc 6e ab 53 3c
       0.0047900854 0.045257162 -0.025309108 0.01291929
0002a0 0d 62 b1 3c 6f 3b 32 3d ac 72 1d 3d 51 2a 3b bd
       0.0216532 0.04351371 0.038439438 -0.045694653
0002b0 38 00 43 bc 32 d2 32 3a e1 a8 e7 ba 97 fd 8a 3b
       -0.011901908 0.00068214827 -0.0017674231 0.004241656
0002c0 b2 61 fa b9 69 6a 55 3c c1 da 12 bd 3b 3d d7 bb
       -0.00047756505 0.013025858 -0.03585315 -0.0065685785
0002d0 63 02 ee bc 7f fb 9e 3c c0 42 46 bd 8f 72 17 bd
       -0.029053872 0.019407032 -0.0484035 -0.036974486
0002e0 f3 8e 0e bd 23 8f 8f bc f0 11 f2 bc 59 41 04 3d
       -0.034804296 -0.017524308 -0.029549569 0.032288883
0002f0 23 4d 2d 3d dc a3 3e 3d 51 9d ad bc e3 8c d9 bc
       0.04230989 0.046542987 -0.021193178 -0.026556438
000300 fd 16 87 3c e3 64 23 3d ae a6 34 bd 12 75 96 3c
       0.016490454 0.039891135 -0.04410427 0.01836637
000310 34 b4 06 3d 02 5f 69 bb 3c 98 05 bd 21 26 0a 3d
       0.0328867 -0.0035609608 -0.032615885 0.03372777
000320 f4 61 08 bd 90 c2 0b 3d 42 87 37 bd e6 74 1c bd
       -0.03329654 0.034121096 -0.044806726 -0.03819742
000330 a1 fb fb bc 03 28 ee 3c 20 12 ae 3c e2 0a 8f bb
       -0.030759634 0.029071813 0.021248877 -0.004365311
000340 08 9b 50 3c 80 2c a8 3c b6 47 23 bd 62 a1 ca bc
       0.012732275 0.020529032 -0.03986331 -0.024735156
000350 98 e0 d4 bc 46 a0 50 3d f1 3e 81 3b fc 3a 3e 3c
       -0.025986 0.0509341 0.003944271 0.011610743
000360 cd 9e 9d 3c 44 d6 01 bd 9c 8c e3 3c 3f 06 45 3d
       0.019240761 -0.03169848 0.027777009 0.04810166
000370 3b 9a 1e bc c6 87 f9 bc e3 0d 82 bc f2 7a 82 bc
       -0.009680326 -0.03046025 -0.015875762 -0.015927766
000380 55 28 8f bb b3 5b 21 bd ea 2b 16 3d af d1 07 3d
       -0.0043688216 -0.03939409 0.036662973 0.033158954
000390 cf c2 fa bc d3 65 ff 3c 78 4d 0e bd 3d 7d b3 3b
       -0.03061047 0.031176483 -0.03474185 0.005477576
0003a0 84 f5 69 bc 16 c3 05 3d a2 99 c1 3c a5 6a 2c bc
       -0.014279727 0.03265675 0.023632828 -0.010523473
0003b0 30 61 ba 3c 42 fd 21 3d 59 5f ca 3c e9 88 37 3b
       0.02275142 0.039548166 0.024703668 0.0028005189
0003c0 4b 96 95 bc b5 f2 50 3d d2 9b bd 3c 96 fa e0 bb
       -0.018260142 0.051012713 0.02314559 -0.0068658097
0003d0 8b b8 4a bd 64 8d 72 3b 8f 43 26 3b fe 8e 91 bb
       -0.0494924 0.0037010545 0.0025369858 -0.004442095
0003e0 28 36 47 bd 87 eb bc 3c dc 95 2f 3d 9b 67 86 3c
       -0.04863563 0.023061527 0.042867526 0.016406825
0003f0 fd 85 2b bd d0 2a 1d 3d dc a9 21 3d 96 00 6c 3b
       -0.041875828 0.038370907 0.03946863 0.0036011091
