outputs/ppo_synthetic/final/score_head.pt (torch, 3453 bytes, 1 tensors)

weight f4 [1, 384]
0.010859589 0.0048365435 -0.0017550759 0.037755538 -0.025277037 -0.024548303 0.042246986 -0.01901705
0.022935022 -0.02164169 0.023255028 0.0037177664 -0.032129157 -0.0053810515 -0.039042294 -0.041462865
0.013831543 -0.017347373 0.03093649 -0.014393757 -0.02142 0.019824732 -0.022219148 0.034877546
0.006497097 -0.008415231 0.01741947 0.01860148 -0.023913248 -0.023498252 0.013683275 -0.012476689
0.022009013 0.020878365 -0.024499588 -0.011166445 0.034158923 -0.018082384 0.018694751 -0.042187944
0.0015679583 -0.0026431184 0.002493181 0.043777507 0.036753014 0.025735233 0.023192588 -0.019242108
-0.045700267 0.027068371 -0.040484484 0.03147496 0.012607249 0.04083144 0.037944652 0.035918273
-0.011082399 -0.036285296 -0.043983445 0.047454912 -0.018093662 0.03622902 -0.029489484 -0.033234403
0.029540056 -0.01915344 0.0032242707 -0.022513771 -0.0077535105 0.0085538635 0.04135267 0.02679535
-0.033864334 -0.034390483 -0.0469539 -0.008493488 0.029503703 -0.0062463493 0.003152267 -0.0016657546
-0.01854396 -0.04142244 0.005700462 0.027122948 -0.008406113 0.004485332 -0.04093513 0.0034211504
-0.036451656 0.02167484 0.006242545 0.042436782 0.017707577 -0.002717951 0.017488087 -0.007822325
-0.03622247 0.042234752 -0.0033579087 -0.039948326 0.0006407772 -0.029916322 0.032700717 -0.011424735
0.047322683 -0.029268444 0.04124009 -0.04097689 0.019863764 0.03932962 0.03921553 0.0060850973
-0.04405886 0.035422113 -0.016007453 -0.040160645 0.03852298 0.033585753 -0.016758991 -0.04175143
0.011351322 -0.03505217 -0.045495693 -0.009023619 0.019675488 0.010759938 0.045451548 -0.023285521
-0.00036379992 0.01733548 -0.01684066 -0.040654756 0.013908956 0.0077078994 -0.031850915 0.01939803
-0.036520384 -0.04385945 0.038378216 -0.036058642 0.03414136 -0.02145657 -0.049869135 0.028546486
-0.0006816217 -0.010517801 0.0144721065 -0.016917603 0.025447255 -0.012535082 -0.0025564358 -0.0073382207
0.009382726 -0.020937797 0.0032587799 -0.036816582 0.008035236 0.04223757 -0.046092927 -0.039499808
-0.0038991626 -0.013667419 0.04164496 0.007959513 0.032432422 0.042990133 0.0101376455 -0.037654612
-0.0044277194 0.029017987 0.020004192 -0.041599214 0.014782817 0.034211803 -0.005201311 0.027829468
-0.015485429 0.00891123 0.031427793 -0.022944469 0.008414022 -0.025413008 0.024599062 0.030359916
-0.05079995 -0.04542023 0.03705079 -0.016045375 0.019545427 0.04907166 0.03166565 0.0011168564
0.017828781 0.021519892 0.013397488 -0.030409142 0.014258737 0.0033050736 -0.0011755242 0.030591583
-0.0063554985 1.8554601e-05 0.026060075 -0.04178016 0.007536664 0.013332154 0.0048046135 0.040085483
-0.001426547 -0.042043094 -0.020355789 -0.015431893 -0.032093145 0.05097962 0.03237369 -0.011797047
-0.018826304 0.02947937 -0.04170296 0.009434304 0.043320652 0.048715778 -0.051028043 0.009749937
-0.0398837 0.034956004 -4.471519e-05 0.012165508 0.041524027 -0.050489716 -0.014289292 0.03020124
-0.005076713 0.043107837 0.016072702 0.0064414167 0.026892198 -0.025504049 -0.01816768 0.010206559
0.046086278 0.020197038 0.03359878 0.031271473 0.0039706076 -0.0072714286 -0.022723649 -0.036883987
0.02098583 0.0041734697 -0.01320283 0.018866036 0.014096947 0.025416365 -0.046200637 -0.017073508
00000000: 6bec 313c de7b 9e3b 930a e6ba 8da5 1a3d
00000010: ca11 cfbc 8619 c9bc 2d0b 2d3d a5c9 9bbc
00000020: 3ae2 bb3c ea49 b1bc 5481 be3c c5a5 733b
00000030: dd99 03bd 8853 b0bb d0ea 1fbd f7d4 29bd
00000040: b29d 623c 141c 8ebc 866e fd3c cbd3 6bbc
00000050: ff78 afbc 7a67 a23c ee04 b6bc c2db 0e3d
00000060: 9ae5 d43b 09e0 09bc 47b3 8e3c 2262 983c
00000070: b7e5 c3bc 687f c0bc d12f 603c 076b 4cbc
00000080: 3f4c b43c 1b09 ab3c 5cb3 c8bc 77f3 36bc
00000090: 3aea 0b3d 8221 94bc bc25 993c 44cd 2cbd
000000a0: f383 cd3a 2b38 2dbb a364 233b 0b50 333d
000000b0: 548a 163d b2d2 d23c 62fe bd3c a0a1 9dbc
000000c0: 3430 3bbd 7dbe dd3c 0fd3 25bd e3eb 003d
000000d0: a38e 4e3c de3e 273d da6b 1b3d 0a1f 133d
000000e0: f392 35bc e49f 14bd fc27 34bd 1560 423d
000000f0: 2939 94bc e264 143d ee93 f1bc cc20 08bd
00000100: fdfd f13c ade7 9cbc 494e 533b cd6e b8bc
00000110: 2911 febb 8125 0c3c 6b61 293d ec81 db3c
00000120: 54b5 0abd 09dd 0cbd bc52 40bd 4528 0bbc
00000130: c0b1 f13c 2dae ccbb 4496 4e3b 7355 daba
00000140: 81e9 97bc 94aa 29bd f1ca ba3b f230 de3c
00000150: cbb9 09bc b1f9 923b 98ab 27bd 6135 603b
00000160: 554e 15bd 6f8f b13c 438e cc3b 31d2 2d3d
00000170: 7b0f 913c a71f 32bb 2d43 8f3c 3629 00bc
00000180: 035e 14bd 59fe 2c3d 5c10 5cbb dba0 23bd
00000190: d4f9 273a 1313 f5bc 30f1 053d d02e 3bbc
000001a0: 6ed5 413d 60c4 efbc 5eeb 283d 62d7 27bd
000001b0: 55b9 a23c 1818 213d 77a0 203d 7f65 c73b
000001c0: 1077 34bd c716 113d 1022 83bc 7d7f 24bd
000001d0: 46ca 1d3d 3791 093d 274a 89bc 8c03 2bbd
000001e0: e5fa 393c dd92 0fbd b159 3abd cdd7 13bc
000001f0: 7d2e a13c 734a 303c 672b 3a3d 47c1 bebc
00000200: 66bc beb9 2303 8e3c 6cf5 89bc 9a85 26bd
00000210: 64e2 633c 8c92 fc3b 1b76 02bd 9ee8 9e3c
00000220: 6696 15bd f7a5 33bd 7a32 1d3d 3ab2 13bd
00000230: d0d7 0b3d b0c5 afbc 9443 4cbd 52da e93c
00000240: dcae 32ba db52 2cbc 6a1c 6d3c c996 8abc
00000250: c376 d03c f25f 4dbc e089 27bb 7575 f0bb
00000260: 01ba 193c be85 abbc 4191 553b fccc 16bd
00000270: 39a6 033c 4d01 2d3d f0cb 3cbd 8dca 21bd
00000280: 1889 7fbb 4fed 5fbc e893 2a3d 9e68 023c
00000290: dcd7 043d 6c16 303d 5e18 263c b93b 1abd
000002a0: 6716 91bb 21b7 ed3c d5df a33c f063 2abd
000002b0: a133 723c ad21 0c3d c26f aabb a0fa e33c
000002c0: 99b6 7dbc 6800 123c 6eba 003d 0af6 bbbc
000002d0: f7da 093c f12e d0bc f983 c93c 5cb5 f83c
000002e0: 9c13 50bd 900a 3abd 92c2 173d 9771 83bc
000002f0: bb1d a03c 5dff 483d d7b3 013d 7b63 923a
00000300: aa0d 923c 7c4a b03c 2381 5b3c 981c f9bc
00000310: 7a9d 693c ef99 583b 0c14 9aba 339b fa3c
00000320: c941 d0bb b4a5 9b37 f07b d53c ac21 2bbd
00000330: 1ff6 f63b 1b6f 5a3c 0570 9d3b ad30 243d
00000340: f9fa baba 6135 2cbd 2fc1 a6bc 0dd6 7cbc
00000350: 1a74 03bd 02d0 503d 469a 043d 6748 41bc
00000360: 9f39 9abc b87e f13c b9d0 2abd 5792 1a3c
00000370: ff70 313d 328a 473d c802 51bd 33be 1f3c
00000380: 175d 23bd 072e 0f3d 928c 3bb8 d751 473c
00000390: 1915 2a3d 4ece 4ebd a21d 6abc 9768 f73c
000003a0: 8e5a a6bb d891 303d e6aa 833c 8512 d33b
000003b0: 074d dc3c deed d0bc 63d4 94bc 6939 273c
000003c0: f7c4 3c3d 4274 a53c e09e 093d 8416 003d
000003d0: df1b 823b 2a45 eebb f226 babc aa13 17bd
000003e0: 7aea ab3c 9ac1 883b af50 58bc f28c 9a3c
000003f0: e2f6 663c fb35 d03c e13c 3dbd bedd 8bbc
