outputs/ppo_synthetic_overfit/epoch-4/score_head.pt (torch, 3453 bytes, 1 tensors)

weight f4 [1, 384]
000000 d9 d2 20 3c 19 c7 8c 3b 6b de b6 ba b5 12 18 3d
       0.009815895 0.004296195 -0.0013951784 0.037127215
000010 80 df c8 bc 04 60 ca bc a9 0c 29 3d 5b 46 90 bc
       -0.024520636 -0.024703987 0.04127184 -0.017611673
000020 85 04 b5 3c 33 96 aa bc 43 66 c4 3c c8 e6 4f 3b
       0.022096882 -0.020823574 0.023974543 0.003172325
000030 57 a5 07 bd d7 a4 85 bb 8e ad 1a bd 83 5f 25 bd
       -0.033116665 -0.0040784883 -0.03776317 -0.04037429
000040 34 ba 4f 3c 9c a5 8a bc 2b 6e f6 3c 52 13 67 bc
       0.012678672 -0.016924672 0.030081829 -0.014103727
000050 ed c0 a9 bc 4e 9d 9c 3c bd 42 b0 bc 9d 51 0b 3d
       -0.020721877 0.019117977 -0.021516198 0.03401338
000060 70 f9 c1 3b 55 5a 1f bc 3f 58 81 3c d1 bb 8f 3c
       0.005919628 -0.009726127 0.01578915 0.017545613
000070 59 9d bd bc 56 13 d0 bc 98 d1 4d 3c ea 0e 39 bc
       -0.023146318 -0.025399845 0.012562178 -0.01129506
000080 3f 86 aa 3c a2 ad 9b 3c 26 52 ca bc 43 4d 1f bc
       0.020815967 0.019003693 -0.024697375 -0.0097230105
000090 8f 43 09 3d 4b bb 96 bc 2e 57 91 3c ab 34 29 bd
       0.033511695 -0.018399855 0.017741766 -0.041309994
0000a0 7b 1d 13 3b dc bf 38 bb 2a eb b0 3a 3e 83 2e 3d
       0.0022447992 -0.002819053 0.0013497819 0.04260563
0000b0 1d 62 11 3d df 1a c8 3c 1d 58 b5 3c 92 f6 94 bc
       0.03549396 0.024426876 0.022136742 -0.01818398
0000c0 90 c8 36 bd fc 51 d6 3c 0a 69 23 bd 8f d7 f9 3c
       -0.044624865 0.02616214 -0.039895095 0.030498294
0000d0 9b bc 39 3c 4a 4b 23 3d 7c 39 17 3d 77 6e 0f 3d
       0.011336471 0.039866723 0.036920056 0.035017457
0000e0 43 25 2a bc 28 8f 11 bd 8b eb 2e bd da 25 3e 3d
       -0.01038486 -0.035536915 -0.0427051 0.046422817
0000f0 2b 49 8d bc fb 07 16 3d c2 bc f0 bc 24 5e 03 bd
       -0.017246803 0.036628705 -0.029386882 -0.0320722
000100 01 97 f2 3c 48 b3 97 bc 6a 74 14 3b 6a 36 b8 bc
       0.02961302 -0.018518105 0.0022652396 -0.022486884
000110 b8 77 df bb c5 94 08 3c a9 90 24 3d fb 9c d5 3c
       -0.0068196915 0.008336251 0.04017702 0.02607583
000120 3e 81 08 bd 8a 09 09 bd d2 64 3e bd 93 69 1f bc
       -0.03332638 -0.033456363 -0.04648287 -0.009729761
000130 08 8e ea 3c 4d 3e b7 bb 72 49 83 3b 0b 04 de ba
       0.028632179 -0.0055921436 0.004006558 -0.0016938461
000140 f0 88 8e bc c7 92 26 bd fa 1f b2 3b d7 1d e4 3c
       -0.017399281 -0.04066732 0.005435941 0.02784626
000150 74 40 e7 bb 2e 6a 93 3b 86 84 25 bd 88 57 6e 3b
       -0.007057244 0.0044987416 -0.040409587 0.003636809
000160 9e 1a 10 bd 22 95 a0 3c 6e 38 c8 3b cc 5c 29 3d
       -0.035181634 0.019602362 0.0061102426 0.041348264
000170 27 e3 90 3c 46 4c 98 ba d9 e5 88 3c 3b 57 f5 bb
       0.01768644 -0.0011619411 0.016711162 -0.0074872053
000180 76 5e 0c bd 0c 4f 29 3d 6b 63 9e bb 03 4f 1f bd
       -0.034269772 0.04133515 -0.004833629 -0.03889371
000190 2d 37 12 b7 98 4a f0 bc aa 59 06 3d 6b 7d 40 bc
       -8.715125e-06 -0.029332444 0.032800354 -0.011748652
0001a0 bc 4b 3d 3d 5c 8b ea bc 46 c9 24 3d 7f f4 25 bd
       0.046214804 -0.028630905 0.04023101 -0.040516373
0001b0 3e 2c ac 3c 53 e2 17 3d 85 5c 1b 3d 29 ea 8b 3b
       0.02101719 0.037081074 0.03793003 0.0042698574
0001c0 4e ce 2f bd 8a 37 08 3d 53 98 76 bc 8c c4 1f bd
       -0.042921357 0.03325609 -0.015050965 -0.0390058
0001d0 94 dd 21 3d 0d 70 06 3d 47 6c 7e bc 25 48 27 bd
       0.039517954 0.032821704 -0.015528745 -0.040840287
0001e0 fa c6 41 3c b9 f5 0d bd 78 a1 35 bd 7e 71 fc bb
       0.011827225 -0.034658168 -0.04434344 -0.007703959
0001f0 d5 46 9b 3c e2 20 22 3c a4 cb 34 3d 29 5f c6 bc
       0.018954674 0.009895535 0.04413952 -0.024215298
000200 1d 6d d6 39 0d 6f 95 3c 82 68 82 bc f9 ce 21 bd
       0.00040898556 0.01824143 -0.015918974 -0.039504025
000210 08 1d 6f 3c 94 35 bb 3b a8 cc 01 bd ad f3 96 3c
       0.014594324 0.005713174 -0.031689316 0.01842674
000220 66 21 15 bd 19 5c 32 bd 47 62 1e 3d 2e 24 10 bd
       -0.036408804 -0.043544862 0.038667943 -0.035190754
000230 fb c8 08 3d 4a ad a9 bc 0b 13 49 bd c5 9e e1 3c
       0.033394795 -0.020712513 -0.049090426 0.027541528
000240 28 26 54 b9 d0 49 10 bc 79 03 7a 3c 34 d0 82 bc
       -0.0002023211 -0.008806661 0.015259617 -0.01596842
000250 f9 b3 c8 3c f9 dc 5c bc b4 97 34 bb 24 5e c9 bb
       0.02449988 -0.013480418 -0.0027556242 -0.0061452556
000260 1a 01 16 3c e0 bf a1 bc 94 6c 63 3b 03 46 14 bd
       0.009155536 -0.019744813 0.0034702169 -0.03619958
000270 90 1c 14 3c 8b 6a 26 3d 83 97 36 bd b7 ae 1e bd
       0.009040013 0.04062895 -0.044578087 -0.03874084
000280 d4 6e a1 bb 90 1d 4a bc 3f 5e 26 3d ef af 0f 3c
       -0.004926542 -0.01233615 0.040617224 0.008769973
000290 82 7c f8 3c f1 84 29 3d 7d 45 3a 3c cd b9 15 bd
       0.030332807 0.04138655 0.011369106 -0.036554147
0002a0 94 8e 67 bb ae 1e ec 3c 4d 5e 9c 3c fd de 25 bd
       -0.0035332786 0.028823223 0.019087935 -0.04049586
0002b0 22 c1 7e 3c 66 ed 07 3d 85 22 82 bb 9f 27 dc 3c
       0.015548976 0.033185385 -0.0039714 0.026874362
0002c0 65 1e 6d bc 3d 9e f3 3b 26 9c fa 3c 37 58 b2 bc
       -0.014472579 0.007434635 0.030592036 -0.02177058
0002d0 d8 6c e5 3b c7 1f cd bc 4b 5a c5 3c 57 bc e9 3c
       0.0070015006 -0.025039567 0.024090907 0.02853219
0002e0 6e a2 4e bd 20 a9 34 bd ff de 15 3d f0 3d 87 bc
       -0.050447874 -0.044106603 0.03658962 -0.016509026
0002f0 e6 ef 9c 3c ba 5c 44 3d fc c7 fa 3c 5d fb 0a 3b
       0.019157361 0.047939993 0.030612938 0.0021206953
000300 be ac 8b 3c b2 c9 a8 3c 61 34 44 3c 41 1b f4 bc
       0.017050143 0.020603988 0.011975379 -0.029798152
000310 93 98 5c 3c d1 89 3f 3b 2a 66 98 ba ea 06 f7 3c
       0.013464111 0.0029226432 -0.0011627127 0.030154664
000320 d6 85 c6 bb 94 af 75 3a 49 b1 cf 3c 97 5e 2b bd
       -0.006058435 0.00093721715 0.02535309 -0.041838255
000330 09 1c e9 3b 07 25 44 3c 1f cc 8d 3b 82 6a 21 3d
       0.0071139378 0.011971719 0.0043273116 0.039408214
000340 21 b4 b8 ba f1 71 28 bd 30 64 9d bc 26 01 6e bc
       -0.0014091769 -0.041124288 -0.019212812 -0.014526641
000350 f7 3c 02 bd 1c 52 4c 3d 60 59 03 3d a6 bf 44 bc
       -0.03179642 0.049882993 0.032067657 -0.012008583
000360 35 33 93 bc b1 cd e6 3c da 60 23 bd 79 e7 21 3c
       -0.017968753 0.028174253 -0.039887287 0.009881848
000370 5a 68 2d 3d 7c 77 45 3d 05 52 4e bd 31 a1 27 3c
       0.042335846 0.048209652 -0.05037119 0.010231302
000380 41 82 29 bd 44 08 0c 3d 8d b6 35 ba ac f9 43 3c
       -0.041383985 0.03418757 -0.0006931804 0.011961382
000390 7b 71 26 3d a5 fe 4b bd 83 dd 57 bc 71 f1 ef 3c
       0.040635567 -0.049803395 -0.013175371 0.029289933
0003a0 3d fe 4d bb ee 4f 2c 3d 59 1b 77 3c 95 79 c8 3b
       -0.0031432055 0.042068414 0.015082204 0.0061180093
0003b0 fa 58 d5 3c b4 54 c7 bc 30 1a 89 bc 2e 08 36 3c
       0.026043404 -0.024332382 -0.01673612 0.011110349
0003c0 0b 65 39 3d a4 db 9f 3c 63 45 0d 3d 0d 3f 03 3d
       0.045262378 0.019513912 0.03449 0.03204255
0003d0 24 b9 29 3b a9 b1 cb bb 0a 1d be bc ab 76 13 bd
       0.0025897706 -0.006216247 -0.023207206 -0.036001842
0003e0 33 93 a9 3c 7a 85 a4 3b 73 99 54 bc 84 c8 8e 3c
       0.020700073 0.0050207945 -0.012976038 0.017429598
0003f0 93 4e 51 3c 20 7f c3 3c 21 94 3a bd f6 df 98 bc
       0.012775081 0.023864329 -0.045551423 -0.01866148
