outputs/ppo/epoch-0/score_head.pt (torch, 3453 bytes, 1 tensors)

weight f4 [1, 384]
000000 c9 86 13 3d e3 b7 84 3c 19 ff 2f 3d ff 99 ac 3b
       0.036017213 0.016200965 0.04296789 0.005267381
000010 3b 1c 96 bc c9 fe e1 3a 01 94 94 bb f2 09 12 bc
       -0.018324008 0.001724207 -0.004534245 -0.008913504
000020 80 ee 36 bd 98 40 2d bd e5 b6 16 3d 7c 80 16 bc
       -0.044661045 -0.04229793 0.036795516 -0.0091859065
000030 b4 73 0a 3d 1b 97 48 bc ac 68 43 bd 9d 1d a2 3c
       0.03380175 -0.012243058 -0.047707245 0.019789511
000040 56 fb a7 bc a1 5d a4 bc a8 a8 8a bc 49 17 c9 3c
       -0.020505589 -0.020064177 -0.016926125 0.024547236
000050 50 87 3e 3c 50 f5 1f bb 6c 6c 81 bc b5 3c ac bc
       0.011628941 -0.0024407692 -0.01579877 -0.021025041
000060 ed 8e 2b 3d 74 f5 40 bd 7c f8 e5 b9 a7 f2 34 3c
       0.04188435 -0.047109082 -0.0004386342 0.011044181
000070 19 24 10 bd 8a cd 81 bc de d5 08 3d 4d 95 26 bd
       -0.035190675 -0.015845079 0.033407085 -0.040669728
000080 f1 83 1e bd b2 e7 1d bc d3 90 35 bd 5f 04 46 3d
       -0.038700048 -0.00963776 -0.04432757 0.048344012
000090 bd b7 fc bc 50 ba 40 3b a0 78 06 bd 90 9e f9 3c
       -0.030849332 0.0029407926 -0.03282988 0.030471116
0000a0 1f 78 3a 3d 74 23 3e 3d d7 92 23 3b c5 6a 97 bc
       0.045524713 0.04642053 0.002495935 -0.018483529
0000b0 53 9f 85 b7 8a fe 99 bc a0 f7 0a bd be a1 29 3d
       -1.5929027e-05 -0.018798131 -0.03392756 0.041414015
0000c0 2f c5 3e bd d2 8b 51 bd f9 d8 35 bd 9c bc 36 3d
       -0.046574768 -0.051158734 -0.044396374 0.044613466
0000d0 7f d8 8b bb 9f cd ca bc 04 e9 04 3c 0c cc 8f bc
       -0.0042677517 -0.02475625 0.008112196 -0.017553352
0000e0 7d bd 5b 3c b9 35 d7 3b 84 8c 14 bc 4e f0 93 bb
       0.013411877 0.0065676835 -0.009066705 -0.0045147305
0000f0 74 01 20 3c d2 de e8 bc d2 ef 1d bd 0d e2 37 bd
       0.009765971 -0.028426562 -0.03855879 -0.044893313
000100 f2 d9 14 3d 8f 3a 07 bd 34 a8 51 3d 5e 1c b2 3b
       0.03634066 -0.03301483 0.0511858 0.0054355105
000110 09 bf 36 bd 99 1b 33 3d ca 99 5e 3c ae 96 a6 3c
       -0.04461578 0.04372749 0.013586471 0.020335522
000120 0d 7d 2b 3d d1 3e 2b 3d 9b fc 82 bc 3e e1 97 3b
       0.041867305 0.041807953 -0.015989592 0.0046350053
000130 40 ae ea bc 2c 1c 9a bc 5a 20 6a bc be 23 b0 bc
       -0.028647542 -0.018812262 -0.01428994 -0.021501418
000140 cb 84 9b 3c c8 45 12 bd b6 da 11 bd be 08 21 3d
       0.018984219 -0.03571108 -0.03560897 0.039314978
000150 c5 63 30 3d 81 1b 14 bd fe e8 1e 3d 30 47 2d bd
       0.043063898 -0.036159042 0.038796417 -0.042304218
000160 82 90 07 3d 81 01 01 3d ed b7 33 3d 3e 86 19 3d
       0.033096798 0.031495575 0.043876577 0.03748154
000170 ca 15 d6 bb 47 d4 0b 3c 4f a5 46 3d a9 40 28 bd
       -0.006533359 0.008534498 0.048497494 -0.04107729
000180 2a 7d 4e bd 78 f4 7b bc 6f c9 05 bd 61 c1 5b bc
       -0.050412335 -0.01537811 -0.032662805 -0.013412804
000190 97 d1 f6 39 4b 17 cb bc 30 f9 01 bd c9 43 ac 3c
       0.00047076933 -0.02479138 -0.031731784 0.021028416
0001a0 b1 8c d2 3c c5 aa d4 bc 88 c2 b8 bc ac b6 61 3b
       0.025701853 -0.025960336 -0.022553697 0.0034441156
0001b0 07 5d 4f bc c6 f6 0d bd 8b 87 36 3d ce 91 09 3d
       -0.012656457 -0.03465917 0.044562858 0.033586316
0001c0 d0 5e f2 3b 10 f1 5b 3c 39 c7 1f 3d db 37 f8 3b
       0.0073965564 0.013424173 0.039008353 0.007575018
0001d0 15 59 ba 3c 3b 14 13 3d 3c 26 af bc 90 98 bf bc
       0.022747556 0.035907965 -0.021380536 -0.023388177
0001e0 00 c0 b9 3c 45 76 4a bc 20 51 8e 3c e7 dc ae bc
       0.02267456 -0.012357299 0.017372668 -0.021345569
0001f0 bb fc 17 bd a9 d2 45 3d 54 6e 2c 3d 34 8a 0b bd
       -0.037106257 0.048296604 0.042097405 -0.034067348
000200 22 97 c7 3c 14 f7 04 3d 6b 32 ae 3c cd 86 44 3c
       0.024364058 0.032462195 0.021264276 0.01199503
000210 5f 18 91 3a 4c ff bc 3c 1d b7 20 bc 5a e0 39 3d
       0.0011069885 0.023070954 -0.009809283 0.045379974
000220 af 6c ff bc c8 2e 6e bc 3b 00 2b bc 79 8d ca 3c
       -0.031179754 -0.014537521 -0.010437067 0.024725663
000230 0c e7 5c 3c b8 c1 1b 3c ba 85 95 3c 52 b1 07 3d
       0.01348282 0.009506635 0.018252242 0.03312809
000240 39 87 d0 bc 62 8c eb bc 7e e8 5a 3b 7d a9 4a 3d
       -0.025455104 -0.028753463 0.0033402736 0.049478043
000250 24 b5 2c bd a2 c3 0f bd 2d 81 63 bb 0e 0b 20 3d
       -0.042164937 -0.03509868 -0.0034714446 0.039073043
000260 29 9e 17 bd 2a 46 18 3d 3a f1 26 3d 43 39 16 bb
       -0.037016068 0.03717629 0.040757395 -0.0022922314
000270 bc 64 87 bb a7 5c db 3c fb 69 88 bc f4 dc a7 ba
       -0.0041318815 0.026777579 -0.016652098 -0.0012806938
000280 d8 6d 1a 3d 26 28 82 bb 70 4f 1b bb da 6f 9d 3b
       0.03770241 -0.003972071 -0.0023698471 0.0048045935
000290 23 e9 9c 3b 9d 60 39 3d 37 43 cf bc 5a a1 53 3c
       0.0047885343 0.045258153 -0.025300605 0.012916887
0002a0 8b 4d b1 3c 36 31 32 3d 40 6c 1d 3d f7 22 3b bd
       0.02164342 0.043503962 0.038433313 -0.045687642
0002b0 eb d8 42 bc 67 94 32 3a 64 bb e8 ba 7a bf 8a 3b
       -0.011892538 0.0006812275 -0.0017756042 0.0042342516
0002c0 65 78 f5 b9 c5 63 55 3c 42 d6 12 bd 61 d3 d6 bb
       -0.00046819742 0.013024275 -0.035848863 -0.00655596
0002d0 3a f0 ed bc fd ed 9e 3c 39 40 46 bd d9 6a 17 bd
       -0.029045213 0.019400591 -0.04840109 -0.036967132
0002e0 60 83 0e bd 75 9b 8f bc 45 11 f2 bc 1b 3b 04 3d
       -0.034793258 -0.017530182 -0.02954925 0.03228293
0002f0 a7 45 2d 3d 0a 9e 3e 3d 63 99 ad bc b4 6f d9 bc
       0.042302754 0.046537437 -0.021191305 -0.026542522
000300 e3 fe 86 3c a0 72 23 3d 07 9f 34 bd ed 86 96 3c
       0.016478961 0.039904237 -0.044096973 0.018374885
000310 99 a4 06 3d 77 42 68 bb 9d 8c 05 bd bf 16 0a 3d
       0.032871816 -0.0035440007 -0.032604802 0.0337131
000320 a5 5e 08 bd 1f c4 0b 3d 9d 85 37 bd ec 68 1c bd
       -0.033293385 0.034122583 -0.044805158 -0.038186
000330 88 f3 fb bc ac 1c ee 3c 1e 19 ae 3c 2b b7 8e bb
       -0.030755773 0.029066406 0.021252211 -0.0043553314
000340 76 86 50 3c b9 3f a8 3c 54 43 23 bd 62 9e ca bc
       0.0127273705 0.020538198 -0.03985913 -0.024733726
000350 38 d3 d4 bc 0a 96 50 3d 3b cb 81 3b 27 19 3e 3c
       -0.025979623 0.05092434 0.0039609945 0.0116026765
000360 e0 a2 9d 3c 43 d3 01 bd dd 87 e3 3c 4c 0c 45 3d
       0.019242704 -0.031695616 0.027774746 0.04810743
000370 31 5c 1e bc 32 83 f9 bc de 02 82 bc 44 8f 82 bc
       -0.009665535 -0.030458067 -0.015870508 -0.015937455
000380 48 5d 8f bb b9 4f 21 bd 10 27 16 3d ac d2 07 3d
       -0.0043751337 -0.03938267 0.036658347 0.033159897
000390 d4 d7 fa bc 40 5b ff 3c 97 45 0e bd 2f 37 b3 3b
       -0.030620493 0.031171441 -0.034734335 0.005469225
0003a0 33 0c 6a bc ce c7 05 3d 34 a0 c1 3c 15 54 2c bc
       -0.014285135 0.03266125 0.023635961 -0.010518094
0003b0 29 67 ba 3c 08 03 22 3d 13 67 ca 3c 61 0f 38 3b
       0.022754269 0.039553672 0.024707353 0.0028085338
0003c0 f5 85 95 bc 34 ed 50 3d 7a 83 bd 3c 2b 98 e0 bb
       -0.018252352 0.051007465 0.023133982 -0.0068540773
0003d0 37 a7 4a bd 93 c0 71 3b 59 d7 25 3b 0e a0 91 bb
       -0.049475875 0.0036888465 0.002530536 -0.004444129
0003e0 41 2c 47 bd d0 d4 bc 3c 94 8a 2f 3d 04 74 86 3c
       -0.04862619 0.023050696 0.042856768 0.016412742
0003f0 06 81 2b bd ac 26 1d 3d f4 a2 21 3d 49 a2 6b 3b
       -0.041871093 0.03836696 0.039462045 0.0035954884
